HW2/model.pth (torch, 557502 bytes, 16 tensors)

layer1.0.weight f4 [8, 1, 5, 5]
0.16741258 0.18325199 0.21618639 0.11551775 -0.07504972 -0.10541488 0.18875043 0.021880114
0.0976792 -0.06267675 -0.02757577 -0.039207637 0.19318616 -0.031925794 -0.06558907 -0.06350869
-0.2161478 -0.058419462 -0.069607094 0.08498475 0.07537491 -0.08533937 -0.2588704 -0.13165013
0.08852319 -0.2730573 -0.15427195 -0.14633188 0.14646824 -0.19164619 0.019643893 0.17596895
-0.051470127 -0.043026622 0.2303157 0.040006116 0.2853672 0.0949258 0.17273857 0.15811263
0.18362285 -0.06946378 -0.22030917 -0.14485863 -0.12515643 0.12342236 0.041156482 -0.17581794
-0.15241523 -0.089859754 0.22183757 -0.14916193 -0.059068836 -0.059602093 0.058890212 0.10364125
-0.08545145 -0.14468701 -0.11561289 0.081324495 0.0104052955 -0.08564984 -0.10290596 -0.050628092
-0.102195315 0.22873253 0.17793304 0.22092065 0.079549104 0.14148355 -0.042579237 -0.05268272
-0.09788859 0.19877942 -0.19240426 0.21249716 0.21761478 -0.06668698 0.19095556 -0.19749726
-0.077904455 0.15451732 0.057843205 -0.13603814 -0.23569934 0.15838793 0.24243245 -0.31925294
0.003306404 -0.1590556 0.17873965 0.21882239 0.021224285 -0.17013419 0.118542135 0.21077964
0.1478435 -0.10119787 -0.2005259 -0.18954198 -0.15425663 -0.16095756 -0.17359325 -0.18897314
-0.21205524 -0.0039221738 -0.09812081 -0.20056978 -0.13094506 -0.032259103 -0.12341611 -0.11697335
-0.13175558 -0.11732234 -0.20334427 0.0067461864 -0.20459844 0.02403929 0.04321771 0.19012998
0.1322242 0.056336578 0.011972858 -0.14366496 -0.074650034 -0.18723436 -0.2994628 0.15015933
0.25975302 0.098596714 -0.3253028 0.17385189 0.27301645 0.0666029 0.05710016 0.031546727
0.26777124 0.23253897 0.053380407 -0.053967666 0.32249242 0.21888214 0.09987538 -0.3123593
-0.2027963 0.18831058 -0.046625298 -0.20612837 0.030051043 -0.2220868 0.030526005 -0.019547457
0.111962914 -0.17331699 -0.17810914 -0.06502126 -0.2275981 -0.02254557 -0.25083122 0.011917609
-0.09961916 -0.17802885 -0.20019723 -0.15316497 0.10545947 -0.11727735 -0.1741919 0.07808467
-0.23801355 0.0953098 -0.07243649 -0.031380642 -0.16697924 0.0988358 0.2862303 -0.07648975
0.11587778 0.06597158 -0.124094136 0.16969702 0.07145557 -0.011852992 0.11288079 0.102416694
0.2079763 -0.08727904 0.16959134 -0.0056005856 -0.15805212 0.09961338 0.0366172 -0.15732253
-0.21374871 -0.09582012 -0.15464075 -0.021304203 -0.0674099 0.07388348 0.05472724 -0.21668847
00000000: 346e 2b3e 69a6 3b3e f75f 5d3e 9294 ec3d
00000010: abb3 99bd c2e3 d7bd cb47 413e ed3d b33c
00000020: 080c c83d ab5c 80bd 95e6 e1bc 3098 20bd
00000030: 98d2 453e 9fc4 02bd 9053 86bd d810 82bd
00000040: d955 5dbe 3f49 6fbd 2a8e 8ebd 7c0c ae3d
00000050: 295e 9a3d 68c6 aebd a98a 84be 4bcf 06be
00000060: a54b b53d 2bce 8bbe 77f9 1dbe 06d8 15be
00000070: c5fb 153e e63e 44be 3bec a03c 3431 343e
00000080: 57d2 52bd af3c 30bd e1d7 6b3e 74dd 233d
00000090: a61b 923e 7568 c23d 61e2 303e 47e8 213e
000000a0: a107 3c3e 0743 8ebd ba98 61be d255 14be
000000b0: 0229 00be ddc4 fc3d b393 283d 9e09 34be
000000c0: bd12 1cbe 6408 b8bd 6329 633e e8bd 18be
000000d0: 2af2 71bd 5321 74bd dd36 713d dd41 d43d
000000e0: 2b01 afbd d528 14be 73c6 ecbd 758d a63d
000000f0: f97a 2a3c 2f69 afbd 5cc0 d2bd 675f 4fbd
00000100: c74b d1bd dc38 6a3e 1434 363e 0639 623e
00000110: a4ea a23d 10e1 103e 9167 2ebd d6c9 57bd
00000120: d079 c8bd d58c 4b3e 9f05 45be db98 593e
00000130: 69d6 5e3e 2f93 88bd db89 433e b93c 4abe
00000140: 5f8c 9fbd ca39 1e3e ffec 6c3d 954d 0bbe
00000150: 2b5b 71be 7230 223e 3640 783e 1f75 a3be
00000160: 41b0 583b 79df 22be 8707 373e fa12 603e
00000170: 8dde ad3c a837 2ebe 38c6 f23d 9ed6 573e
00000180: 4964 173e d440 cfbd a956 4dbe 4b17 42be
00000190: 73f5 1dbe 0fd2 24be 6ec2 31be 2d82 41be
000001a0: 0225 59be 9485 80bb 90f3 c8bd 2a62 4dbe
000001b0: 7616 06be 1f22 04bd 96c1 fcbd b98f efbd
000001c0: efea 06be b246 f0bd 7b39 50be 1d0f dd3b
000001d0: 4182 51be 0cee c43c 0e05 313d 6fb1 423e
000001e0: c865 073e 2fc1 663d ce29 443c e81c 13be
000001f0: 1ee2 98bd 5dba 3fbe 3053 99be 5ec3 193e
00000200: 59fe 843e 13ed c93d 178e a6be 3b06 323e
00000210: d0c8 8b3e 1a67 883d dbe1 693d 2437 013d
00000220: 5019 893e b21e 6e3e 6aa5 5a3d 330d 5dbd
00000230: ba1d a53e a422 603e 778b cc3d 8fed 9fbe
00000240: d5a9 4fbe 7dd4 403e 2bfa 3ebd 5113 53be
00000250: 9b2d f63c b96a 63be ac11 fa3c fd21 a0bc
00000260: d04c e53d 027a 31be 3e62 36be de29 85bd
00000270: 7a0f 69be 7db1 b8bc f36c 80be 1342 433c
00000280: 2105 ccbd 324d 36be 8100 4dbe 47d7 1cbe
00000290: 22fb d73d 1b2f f0bd 5d5f 32be dbea 9f3d
000002a0: d3b9 73be c931 c33d 9559 94bd fd88 00bd
000002b0: 9bfc 2abe 6d6a ca3d c78c 923e a8a6 9cbd
000002c0: 5451 ed3d 1c1c 873d 1125 febd 0ec5 2d3e
000002d0: 4c57 923d 0d33 42bc 0b2e e73d d8bf d13d
000002e0: bdf7 543e 5abf b2bd 5aa9 2d3e 1e85 b7bb
000002f0: 6ad8 21be 1a02 cc3d ebfb 153d 2819 21be
00000300: f1e0 5abe 573d c4bd 255a 1ebe 2786 aebc
00000310: 340e 8abd 3950 973d ac29 603d 95e3 5dbe

layer1.0.bias f4 [8]
0.14950466 -0.13761233 -0.06758878 -0.1490166 0.13600503 0.087693155 -0.025551978 0.19047962
00000000: c017 193e 3fea 0cbe fc6b 8abd cf97 18be
00000010: e744 0b3e 7898 b33d 6252 d1bc 170d 433e

layer1.3.weight f4 [8, 8, 3, 3]
0.041958153 -0.00016618866 -0.010406776 -0.066655315 0.028670961 -0.09151184 -0.020297667 -0.120474
0.024031824 0.012166026 0.0016809443 0.053508572 0.09577941 -0.029059088 0.06487983 0.0465821
0.034229755 0.036855314 0.045965575 -0.07061773 -0.07516733 0.009238501 -0.035053432 -0.056940187
0.112821355 0.054316103 0.039962 0.17646211 -0.021893203 0.07605966 0.19148195 -0.0053032134
0.15292385 0.1590325 0.019347366 0.042467378 -0.11006254 0.053427044 -0.1098407 -0.049044598
-0.11222871 0.081904635 0.112152174 0.02879275 -0.015933318 -0.022413203 0.028093318 0.09240707
0.012269501 0.04673326 -0.06219499 -0.095666245 0.010114377 -0.13547231 0.12926082 0.104386136
-0.09319326 0.09906098 -0.07588442 -0.10779416 -0.039680205 0.059104823 -0.09033053 -0.048164833
-0.10072475 0.08622621 -6.95668e-05 -0.07345285 -0.13383588 0.031430043 0.007544871 0.0027605759
0.13954778 0.058441103 -0.07650932 0.0851274 0.06563033 -0.11039119 -0.032911647 -0.09722969
-0.1317096 0.04068658 0.02283688 -0.09382878 0.052160814 -0.016872391 -0.18075 -0.013166813
-0.04208561 0.110451 -0.12352444 -0.00019121481 -0.05539033 -0.09172025 -0.07960814 0.0436141
0.08383727 0.1168181 0.083862685 0.049377456 0.15096927 0.1388582 -0.07177817 0.042083878
-0.20759977 -0.062331647 -0.19449505 -0.16393274 -0.06449809 0.08957193 0.0067160027 0.049591072
-0.07665754 0.016144019 -0.09169667 0.078576066 0.12339628 0.20308128 0.09802417 -0.20940971
0.043757696 -0.083911456 0.031213269 -0.047644116 -0.015484327 -0.009462068 -0.11918787 0.09386047
0.031718463 0.118098475 -0.09159888 0.038855378 -0.06337148 0.06725166 -0.09209292 0.117756434
-0.03386375 -0.14259535 -0.0054258094 0.0081551 -0.16816679 0.061148737 -0.12077818 -0.10299124
-0.04187397 0.07741373 0.024853926 0.0853046 0.13786656 -0.04509737 0.17015903 0.01696063
0.03789984 0.099246584 0.095383786 0.1895266 0.08465348 0.076334 0.09751585 -0.06627116
-0.061522372 -0.04722741 0.15066928 0.06974464 -0.06031486 0.10956839 -0.118883766 -0.067608945
0.09651504 0.008393661 -0.09918151 -0.033709634 -0.05393708 -0.06997928 -0.066729605 -0.09881672
0.02943732 -0.088956945 -0.0013224636 -0.084517285 -0.066575 0.028835552 -0.08339767 -0.09162789
-0.12483992 -0.055648237 0.09521797 0.042410478 0.14433257 0.00040396262 0.1241711 0.09146764
0.103792116 0.045991167 -0.09430307 -0.1274505 0.02779871 0.09514274 -0.06911965 -0.0026343688
-0.05913871 -0.033972334 0.056081753 0.0013863172 -0.033275403 0.027431797 0.09474576 0.10436867
-0.053013217 -0.04162062 0.023090452 0.048073687 0.03353705 0.09258731 -0.0052890377 0.004967492
0.06474329 0.047244925 0.14504124 0.012297472 -0.022924757 -0.04995695 0.031844664 -0.055726465
-0.10029652 -0.12702198 0.13894719 0.12625948 -0.044855908 -0.028947625 0.024510285 0.039216187
0.007903398 0.05684623 -0.063622855 0.045363575 -0.00874465 -0.00019567089 0.00871829 0.0610175
-0.023151085 0.06733736 -0.02882578 -0.043545924 -0.111114025 -0.12758207 0.07288529 -0.0845327
0.028195722 0.033578023 -0.04280569 -0.06983264 -0.04546513 -0.042365097 -0.11334188 -0.04025654
00000000: 50dc 2b3d ee42 2eb9 2f81 2abc 9582 88bd
00000010: 5ddf ea3c 8f6a bbbd 4b47 a6bc 13bb f6bd
00000020: 63de c43c 0354 473c 2253 dc3a ce2b 5b3d
00000030: ff27 c43d 530d eebc b7df 843d dfcc 3e3d
00000040: 8034 0c3d 99f5 163d 6646 3c3d 07a0 90bd
00000050: 54f1 99bd 155d 173c 3094 0fbd 1d3a 69bd
00000060: e20e e73d 907a 5e3d 32af 233d 7cb2 343e
00000070: 6059 b3bc 2bc5 9b3d d813 443e 94c6 adbb
00000080: 1298 1c3e 6ad9 223e 5e7e 9e3c 46f2 2d3d
00000090: 7868 e1bd 51d6 5a3d 29f4 e0bd fde2 48bd
000000a0: 2ad8 e5bd 9ebd a73d 0ab0 e53d c6de eb3c
000000b0: 9786 82bc e59b b7bc f523 e63c eb3f bd3d
000000c0: 0406 493c 606b 3f3d 2dc0 7ebd aaec c3bd
000000d0: c6b6 253c 41b9 0abe f35c 043e 66c8 d53d
000000e0: 1cdc bebd 7ce0 ca3d 4a69 9bbd 2fc3 dcbd
000000f0: b687 22bd e617 723d 37ff b8bd 7d48 45bd
00000100: c748 cebd 5e97 b03d 64e4 91b8 736e 96bd
00000110: 460c 09be cabc 003d f73a f73b c7ea 343b
00000120: 9de5 0e3e f05f 6f3d ebb0 9cbd 4657 ae3d
00000130: 3269 863d c714 e2bd 5dce 06bd 5c20 c7bd
00000140: e2de 06be f9a6 263d 6914 bb3c 4e29 c0bd
00000150: 94a6 553d f837 8abc 8716 39be 9eb9 57bc
00000160: f661 2cbd 2234 e23d 62fa fcbd d680 48b9
00000170: f8e0 62bd d4d7 bbbd 9809 a3bd b3a4 323d
00000180: e0b2 ab3d 543e ef3d 33c0 ab3d 0440 4a3d
00000190: b097 1a3e d830 0e3e 6f00 93bd 2560 2c3d
000001a0: 0995 54be 784f 7fbd b629 47be fcdd 27be
000001b0: 9317 84bd 7d71 b73d ea11 dc3b 0220 4b3d
000001c0: a1fe 9cbd 7640 843c 77cb bbbd 7dec a03d
000001d0: 30b7 fc3d 8af4 4f3e e5c0 c83d 806f 56be
000001e0: 453b 333d c5d9 abbd f8b2 ff3c 7a26 43bd
000001f0: fab1 7dbc ca06 1bbc c518 f4bd eb39 c03d
00000200: 38eb 013d 9ddd f13d 3298 bbbd d126 1f3d
00000210: e8c8 81bd 3dbb 893d 369b bcbd 492a f13d
00000220: b7b4 0abd 8404 12be fdca b1bb f89c 053c
00000230: ea33 2cbe 1977 7a3d 8d5a f7bd 12ed d2bd
00000240: 0a84 2bbd 178b 9e3d 769a cb3c 2eb4 ae3d
00000250: e42c 0d3e 05b8 38bd 2b3e 2e3e 05f1 8a3c
00000260: dd3c 1b3d cb41 cb3d 9358 c33d 4313 423e
00000270: ce5e ad3d 0055 9c3d 64b6 c73d 2db9 87bd
00000280: e2fe 7bbd 8771 41bd 0c49 1a3e 47d6 8e3d
00000290: b70c 77bd 6465 e03d 5579 f3bd 8f76 8abd
000002a0: ada9 c53d 9185 093c ad1f cbbd 1d13 0abd
000002b0: 21ed 5cbd 4c51 8fbd 88a9 88bd 6c60 cabd
000002c0: 8926 f13c 0f2f b6bd 8456 adba 6617 adbd
000002d0: 7958 88bd 8938 ec3c 66cc aabd 67a7 bbbd
000002e0: 12ac ffbd 68ef 63bd a401 c33d 9cb6 2d3d
000002f0: ebcb 133e f2ca d339 6b4d fe3d 6353 bb3d
00000300: f690 d43d 3c61 3c3d f821 c1bd 6282 02be
00000310: 1fba e33c 32da c23d 9a8e 8dbd 60a5 2cbb
00000320: 6f3b 72bd 9326 0bbd fbb5 653d 16b5 b53a
00000330: ca4b 08bd a6b8 e03c 110a c23d 3ebf d53d
00000340: 6324 59bd 627a 2abd 3028 bd3c eae8 443d
00000350: 255e 093d 6a9e bd3d aa4f adbb 58c6 a23b
00000360: 2198 843d e583 413d b185 143e 567b 493c
00000370: b3cc bbbc a99f 4cbd 8d6f 023d 6f41 64bd
00000380: 4368 cdbd 0d12 02be 2c48 0e3e 2a4a 013e
00000390: d4ba 37bd 9223 edbc cbc9 c83c 27a1 203d
000003a0: 417d 013c 98d7 683d b34c 82bd 28cf 393d
000003b0: b845 0fbc 012d 4db9 29d7 0e3c 7ced 793d
000003c0: 58a7 bdbc 2be8 893d 0b24 ecbc 365d 32bd
000003d0: c08f e3bd e0a4 02be e244 953d 7b1f adbd
000003e0: b7fa e63c 1c89 093d 0555 2fbd 6a04 8fbd
000003f0: a539 3abd 0687 2dbd ca1f e8bd 0be4 24bd

layer1.3.bias f4 [8]
0.08092751 -0.13195181 -0.10971129 -0.008040442 -0.08989407 -0.026081303 0.07981206 0.029808864
00000000: 53bd a53d 601e 07be 50b0 e0bd 0fbc 03bc
00000010: 621a b8bd 75a8 d5bc 8174 a33d b831 f43c

layer2.0.weight f4 [32, 8, 5, 5]
-0.0131717045 0.07023702 -0.03814095 0.091253094 0.11925181 0.07557363 0.0066480236 0.076303355
0.12214401 0.016933987 0.09892145 0.005447838 -0.01465076 0.06502778 0.10702675 0.14405991
0.0776429 0.04384741 -0.0037931672 0.0052584074 0.104563765 0.12891805 0.057251737 0.06373752
0.10287951 -0.0023711314 0.051441588 0.009421823 -0.052461367 0.030308956 0.020352487 0.070913695
-0.062464457 0.024568409 0.092235304 0.039490912 -0.069621846 -0.0089069605 0.020458642 0.025409922
0.09062701 -0.022942264 0.04246312 0.055814207 -0.09707739 -0.06403913 -0.1224983 -0.03186907
-0.03514409 -0.00889188 -0.031187598 -0.03826692 0.0020550308 0.060026485 -0.03738241 -0.040907767
0.039938867 -0.056586236 0.020781035 -0.01547736 -0.05212378 -0.05792367 -0.049026445 0.008385657
-0.014283799 -0.011465669 0.07492908 -0.036749262 -0.056920037 0.015488212 -0.04243601 -0.055774134
-0.03472492 0.020471238 -0.03318972 -0.07266958 -0.0055733826 0.071832225 0.09681583 0.022377029
0.04681128 -0.012796918 0.080468774 -0.033065572 -0.00057540054 0.0073443 0.020729417 -0.0044437093
-0.041711513 0.003969811 -0.028058192 -0.036697347 0.025875757 0.06391703 0.078223914 -0.017483491
-0.019925633 -0.022395048 -0.007952838 0.049739473 -0.05753645 0.04937666 -0.014579114 0.005961764
0.08694763 0.03895979 0.026372964 0.015826982 0.11623269 0.06081567 0.07729097 0.064534746
0.022263175 0.015146949 0.07268283 0.098093435 0.13022184 0.09806245 0.06366935 0.09058083
0.1747707 0.07884677 0.031790722 0.066988476 0.049170442 0.08010719 -0.02787714 0.10610624
0.02657113 0.037626464 -0.009148116 -0.027951878 0.013335074 0.03642074 -0.05996096 0.06474889
-0.023280399 0.068713635 -0.011101739 0.019877616 0.05459185 0.120270245 0.05449612 -0.030297987
0.044234283 0.1324491 0.10744181 -0.007413454 -0.025786223 0.05793849 -0.0114054885 0.047065765
0.06878445 -0.07944436 -0.034031212 0.006338484 0.049660586 -0.061021022 -0.06723638 -0.048736576
-0.05870414 -0.030613001 -0.07843117 0.029672 -0.0055139367 -0.06167645 -0.071528405 -0.049572542
0.045145154 -0.0044357367 -0.02065466 0.016307406 0.015283145 0.042014126 0.0006420922 -0.09329041
-0.01795163 0.044984348 -0.013785304 0.03472237 -0.033671446 -0.02724558 0.044952594 0.07257277
0.08409576 0.08684655 0.028448353 0.0983625 0.049280833 0.018125486 -0.00031315043 0.020495364
0.060101837 0.03564978 -0.0084090745 -0.0016427678 0.08560842 0.04584861 0.01632399 0.014057352
0.030824808 -0.0027284308 -0.03969681 0.004888624 0.14291178 0.022085235 -0.003529073 -0.057475194
0.10557521 0.065048166 -0.04713742 -0.08354787 0.0029918693 0.1144764 -0.00039880135 -0.13096252
-0.019618811 0.124814175 0.14428711 0.03586741 -0.02988116 0.0563056 0.057770066 0.12447485
-0.028706213 -0.018438485 0.056768008 -0.06741117 -0.06378187 -0.061078914 -0.025899788 0.0019297074
-0.069576964 -0.117353335 -0.035939742 0.059917748 -0.042669512 -0.06446709 -0.0955188 0.001131954
0.02022095 -0.0959079 -0.036049925 0.0018588104 -0.0007700134 0.07352028 0.043175496 0.08548585
-0.04825714 0.038745794 -0.05524367 -0.0704409 -0.010372301 0.050334554 0.0022556407 -0.047362115
00000000: 22ce 57bc 6dd8 8f3d af39 1cbd e7e2 ba3d
00000010: 4b3a f43d 59c6 9a3d aad7 d93b ef44 9c3d
00000020: a426 fa3d 25b9 8a3c 5497 ca3d c783 b23b
00000030: be09 70bc 492d 853d d730 db3d 7184 133e
00000040: 3e03 9f3d 5799 333d c996 78bb b84e ac3b
00000050: 8725 d63d 1803 043e cc80 6a3d d188 823d
00000060: 7eb2 d23d fc64 1bbb 6ab4 523d fd5d 1a3c
00000070: bbe1 56bd 7d4a f83c 42ba a63c 333b 913d
00000080: bbda 7fbd b043 c93c dde5 bc3d 39c1 213d
00000090: e695 8ebd 80ee 11bc e298 a73c 7828 d03c
000000a0: a79a b93d 6af1 bbbc cfed 2d3d 709d 643d
000000b0: 83d0 c6bd f326 83bd 64e0 fabd 2489 02bd
000000c0: 40f3 0fbd 3faf 11bc 227d ffbc c6bd 1cbd
000000d0: b2ad 063b 55de 753d 4c1e 19bd e78e 27bd
000000e0: f096 233d f8c6 67bd fd3c aa3c c194 7dbc
000000f0: bf7f 55bd 5f41 6dbd f4cf 48bd ff63 093c
00000100: 9806 6abc 80da 3bbc 6b74 993d 6586 16bd
00000110: fc24 69bd 45c2 7d3c 62d1 2dbd 6b73 64bd
00000120: b83b 0ebd 4cb3 a73c f2f1 07bd cad3 94bd
00000130: eca0 b6bb c61c 933d 6147 c63d 0850 b73c
00000140: 2fbd 3f3d 2aaa 51bc d0cc a43d c46f 07bd
00000150: 7ad6 16ba 74a8 f03b bdd0 a93c 899c 91bb
00000160: b1d9 2abd 3015 823b 4bda e5bc f54f 16bd
00000170: 65f9 d33c efe6 823d dc33 a03d 8a39 8fbc
00000180: 153b a3bc d275 b7bc 9f4c 02bc 9ebb 4b3d
00000190: 57ab 6bbd 2e3f 4a3d 3cdd 6ebc e75a c33b
000001a0: 9911 b23d 4d94 1f3d 1d0c d83c 96a7 813c
000001b0: 680b ee3d da19 793d ba4a 9e3d cb2a 843d
000001c0: 4361 b63c e92a 783c bcda 943d 36e5 c83d
000001d0: e058 053e f7d4 c83d 1465 823d 7182 b93d
000001e0: 17f7 323e 6a7a a13d fd36 023d 4131 893d
000001f0: f266 493d 3d0f a43d 9a5e e4bc 3a4e d93d
00000200: b3ab d93c 351e 1a3d fbe1 15bc 56fb e4bc
00000210: 5b7b 5a3c ea2d 153d a099 75bd 119b 843d
00000220: 89b6 bebc bcb9 8c3d 11e4 35bc 62d6 a23c
00000230: b49b 5f3d 3f50 f63d 5337 5f3d 7c33 f8bc
00000240: 022f 353d bda0 073e 740a dc3d 8fec f2bb
00000250: a13d d3bc e950 6d3d 16de 3abc 08c8 403d
00000260: ddde 8c3d bab3 a2bd 5064 0bbd 0fb3 cf3b
00000270: e668 4b3d 2ef1 79bd 3ab3 89bd 01a0 47bd
00000280: c173 70bd 1ec8 fabc 85a0 a0bd b212 f33c
00000290: 41ae b4bb 72a0 7cbd 7c7d 92bd 940c 4bbd
000002a0: 20ea 383d a859 91bb f633 a9bc 1c97 853c
000002b0: 2866 7a3c 0117 2c3d 1452 283a 0b0f bfbd
000002c0: 4c0f 93bc 8241 383d c1db 61bc 0b39 0e3d
000002d0: 12eb 09bd 1f32 dfbc 3620 383d 08a1 943d
000002e0: 663a ac3d 9bdc b13d 850c e93c 4772 c93d
000002f0: b3da 493d e67b 943c 572e a4b9 e5e5 a73c
00000300: 582d 763d 8105 123d 37c6 09bc 2452 d7ba
00000310: 7853 af3d c1cb 3b3d e3b9 853c cf50 663c
00000320: 4f84 fc3c 79cf 32bb 1f99 22bd c030 a03b
00000330: 7757 123e 18ec b43c 0548 67bb 1c6b 6bbd
00000340: d137 d83d f937 853d 2b13 41bd 251b abbd
00000350: 3d13 443b 9a72 ea3d 3616 d1b9 0a1b 06be
00000360: a1b7 a0bc 939e ff3d 00c0 133e b5e9 123d
00000370: 56c9 f4bc b3a0 663d 4ea0 6c3d acec fe3d
00000380: 4b29 ebbc 4e0c 97bc 9285 683d de0e 8abd
00000390: 12a0 82bd e22d 7abd cb2b d4bc 3cee fc3a
000003a0: 5e7e 8ebd f256 f0bd 8d35 13bd 506c 753d
000003b0: 3ac6 2ebd 5207 84bd 5c9f c3bd 135e 943a
000003c0: 68a6 a53c 5c6b c4bd 16a9 13bd 54a3 f33a
000003d0: b9da 49ba cd91 963d cad8 303d 3513 af3d
000003e0: 47a9 45bd e9b3 1e3d 3047 62bd 5243 90bd
000003f0: 95f0 29bc 9b2b 4e3d 5fd3 133b c7fe 41bd

layer2.0.bias f4 [32]
0.02623384 -0.018547239 0.017379802 0.033407386 0.031260755 0.028163979 0.045714296 -0.07921737
-0.07492256 0.023597036 0.014243615 -0.0027979193 0.03603233 0.029409463 0.019555328 -0.051587835
-0.04578966 -0.058396712 0.01254325 -0.008673072 0.019729998 -0.035006415 -0.010970284 0.029907085
-0.039579105 0.016047731 -0.06580056 -0.010795106 0.028807003 0.007851296 0.014653046 -0.04151496
00000000: 5ae8 d63c 61f0 97bc 1660 8e3c 2fd6 083d
00000010: 470b 003d 25b8 e63c ea3e 3b3d b73c a2bd
00000020: 0071 99bd 924e c13c 0d5e 693c 4c5d 37bb
00000030: a396 133d 1dec f03c 7f32 a03c c44d 53bd
00000040: f08d 3bbd 6431 6fbd 3482 4d3c 8019 0ebc
00000050: cea0 a13c e362 0fbd b5bc 33bc b4ff f43c
00000060: b31d 22bd 8876 833c 72c2 86bd f5dd 30bc
00000070: aafc eb3c b9a2 003c 5413 703c 970b 2abd

layer2.2.weight f4 [32, 32, 3, 3]
-0.0670782 -0.028280599 0.058692504 -0.08900129 -0.0011112366 -0.0029122222 -0.014159188 0.056926623
0.0016202523 -0.05667125 0.036275834 -0.0023169164 0.013065741 -0.0047190264 0.049957838 0.027852204
-0.01636992 -0.08401694 -0.098619215 -0.019499253 -0.025909372 0.019278193 -0.09921913 -0.11232905
-0.06118898 -0.07831782 -0.045754835 -0.027220732 0.07425114 0.011815489 0.070511125 0.03388568
0.03223849 0.0900052 0.07533013 0.07615112 0.031911936 -0.051256154 -0.011846687 0.013481623
-0.011524373 -0.05570036 0.012890872 -0.055200048 0.02984716 -0.027480535 0.10911784 0.119890966
-0.014786861 0.11481072 0.12486163 0.10596707 0.1172856 0.0883289 -0.07600228 -0.055691227
0.024490459 -0.039566636 -0.0074272747 -0.030249577 -0.017182877 0.011363829 0.022141363 -0.024039952
-0.051593404 0.0030192807 -0.08606126 -0.0069670733 -0.003104841 -0.055772044 -0.03141107 0.09470716
0.05725283 -0.011540135 0.08344264 0.038561378 0.091981605 0.092008606 0.0673754 0.0840684
0.039634004 -0.04724618 -0.08918209 -0.048556425 -0.0045805196 0.04799474 0.01176141 0.0047119004
0.0013610009 0.010546261 -0.024432307 -0.006442476 0.040235147 -0.15246366 -0.029425386 0.07173648
-0.05693716 -0.020113457 0.009631761 -0.014112729 0.024289828 -0.041767757 -0.031362284 -0.05123744
-0.046498377 0.008884361 -0.03003073 -0.120961 0.061214194 -0.0401035 -0.043525822 0.041460246
-0.07785565 -0.18044531 0.037690304 -0.036584705 -0.12387859 -0.15793201 0.06319184 0.20219173
-0.16894415 0.077816054 0.20760117 -0.052842677 0.073645666 0.066463254 0.052925397 0.07547256
-0.008024266 0.04406275 0.022742532 -0.019580636 0.07313272 0.0732907 0.042396072 -0.015704665
0.05975984 0.01354878 -0.06055075 0.07572563 0.043349084 0.03585093 -0.028437966 0.07924468
-0.090270184 -0.038142275 0.02061979 0.015860597 0.060741093 -0.017881442 0.004847521 0.07639836
0.0568708 -0.23216754 -0.0836397 0.06445035 -0.030227514 0.049427986 0.112720855 -0.0024633117
0.1738433 0.08911679 -0.018134836 -0.039019156 0.021750096 0.023654722 0.08032271 0.078893624
0.05660281 0.07426489 0.03658409 -0.015248301 0.024166826 -0.010511182 -0.07212105 0.05522893
-0.007042968 -0.008308581 0.05909404 0.052603047 0.0041851364 -0.016033145 0.07113897 -0.0012830079
-0.05250205 0.011031351 4.342156e-05 0.013325018 0.050953425 -0.013210276 0.00043878812 0.025013817
0.047523525 0.037502248 0.13955218 0.14525604 0.079804435 0.121398486 0.04170916 0.0034286545
0.04207627 0.01522629 0.0338599 -0.05172597 -0.035975408 -0.0050150817 -0.099037774 0.009569337
-0.055712193 -0.07236089 -0.020482471 -0.044858966 -0.013207933 0.0017587409 -0.09737138 -0.063452974
-0.13785923 -0.029362204 -0.06780155 -0.18156667 -0.042473543 -0.04261966 -0.07374151 0.046671536
0.021886922 -0.11975299 -0.09692171 0.0068530296 -0.06767337 -0.055356827 -0.004764293 -0.0035635144
-0.063361794 0.056995798 -0.020685842 0.079265155 0.09384799 -0.0014281044 -0.03710244 -0.024028117
-0.03461623 0.039709594 -0.034015242 -0.08085628 -0.079925366 -0.023052745 -0.08922035 0.017665138
-0.0069399164 -0.014241048 0.05616643 -0.0028987562 -0.16037263 -0.10624334 -0.001210845 -0.2222474
00000000: 4c60 89bd b7ac e7bc 8d67 703d 4f46 b6bd
00000010: eaa6 91ba fbda 3ebb f0fb 67bc e42b 693d
00000020: a55e d43a 1d20 68bd f895 143d 68d7 17bb
00000030: b111 563c 10a2 9abb 97a0 4c3d 4e2a e43c
00000040: 361a 86bc 1311 acbd dff8 c9bd e6bc 9fbc
00000050: e43f d4bc 4ded 9d3c 6633 cbbd c60c e6bd
00000060: 4ca1 7abd 1865 a0bd 6c69 3bbd 03fe debc
00000070: fb10 983d c195 413c 2368 903d b6cb 0a3d
00000080: 820c 043d a554 b83d af46 9a3d 1ef5 9b3d
00000090: 17b6 023d f9f1 51bd 9b18 42bc 06e2 5c3c
000000a0: b9d0 3cbc 1026 64bd 3c34 533c 7219 62bd
000000b0: 0882 f43c dc1e e1bc 2d79 df3d 6589 f53d
000000c0: 9744 72bc e221 eb3d 74b7 ff3d 4305 d93d
000000d0: 6f33 f03d c8e5 b43d 15a7 9bbd 7c1c 64bd
000000e0: 37a0 c83c a010 22bd 7f60 f3bb f6cd f7bc
000000f0: 1bc3 8cbc 5a2f 3a3c ce61 b53c 6fef c4bc
00000100: 9b53 53bd 20df 453b e340 b0bd 0c4c e4bb
00000110: 977a 4bbb 3a71 64bd e5a8 00bd d4f5 c13d
00000120: f281 6a3d d612 3dbc fae3 aa3d 89f2 1d3d
00000130: da60 bc3d 026f bc3d 1dfc 893d 0e2c ac3d
00000140: 4457 223d 3685 41bd 19a5 b6bd 1ae3 46bd
00000150: 2f18 96bb 2296 443d eeb2 403c 4966 9a3b
00000160: 9d63 b23a 3aca 2c3c 4326 c8bc 681b d3bb
00000170: 9ccd 243d 6f1f 1cbe 820d f1bc 93ea 923d
00000180: f136 69bd fac4 a4bc 89ce 1d3c 1339 67bc
00000190: 76fb c63c ab14 2bbd bd75 00bd 5ade 51bd
000001a0: 1575 3ebd b68f 113c 0103 f6bc 67ba f7bd
000001b0: bcbb 7a3d 9143 24bd 2248 32bd 38d2 293d
000001c0: c872 9fbd a8c6 38be 2661 1a3d d8d9 15bd
000001d0: 0fb4 fdbd eeb8 21be b96a 813d 590b 4f3e
000001e0: b2ff 2cbe 065e 9f3d 6795 543e 9071 58bd
000001f0: 8ad3 963d e31d 883d 4dc8 583d 5c91 9a3d
00000200: 3678 03bc 247b 343d 8c4e ba3c 9267 a0bc
00000210: 9cc6 953d 6f19 963d 81a7 2d3d 12a7 80bc
00000220: bcc6 743d b4fb 5d3c 1004 78bd 0a16 9b3d
00000230: cf8e 313d 6dd8 123d bdf6 e8bc 094b a23d
00000240: 93df b8bd 133b 1cbd d5ea a83c 15ee 813c
00000250: a7cb 783d 1a7c 92bc f4d7 9e3b be76 9c3d
00000260: 5bf1 683d 54bd 6dbe 4b4b abbd 8cfe 833d
00000270: b19f f7bc 0075 4a3d 31da e63d 836f 21bb
00000280: fa03 323e dd82 b63d 828f 94bc 8dd2 1fbd
00000290: 422d b23c 8cc7 c13c 3c80 a43d fb92 a13d
000002a0: 59d8 673d 3118 983d 33d9 153d 03d4 79bc
000002b0: 82f9 c53c 1837 2cbc 33b4 93bd bb37 623d
000002c0: b3c8 e6bb b720 08bc 980c 723d 4b76 573d
000002d0: 7823 893b f157 83bc 4fb1 913d 9a2a a8ba
000002e0: 640c 57bd d7bc 343c 8c1f 3638 2d51 5a3c
000002f0: 8ab4 503d ea6f 58bc 250d e639 c7e9 cc3c
00000300: 07a8 423d f59b 193d c4e6 0e3e 00be 143e
00000310: 8270 a33d c59f f83d 39d7 2a3d 47b3 603b
00000320: 2b58 2c3d b077 793c aeb0 0a3d 9cde 53bd
00000330: f35a 13bd 8e55 a4bb 51d4 cabd b5c8 1c3c
00000340: 7832 64bd f231 94bd dbca a7bc 09be 37bd
00000350: 1666 58bc 8d85 e63a a56a c7bd a2f3 81bd
00000360: f82a 0dbe 0189 f0bc 8adb 8abd 9dec 39be
00000370: bdf8 2dbd f491 2ebd ca05 97bd a72a 3f3d
00000380: 344c b33c 0e41 f5bd e47e c6bd 618f e03b
00000390: 5698 8abd d7bd 62bd c91d 9cbb da89 69bb
000003a0: d4c3 81bd 6d74 693d 5b75 a9bc c555 a23d
000003b0: 6033 c03d 3b2f bbba baf8 17bd 9dd6 c4bc
000003c0: bfc9 0dbd 87a6 223d 9153 0bbd fa97 a5bd
000003d0: e9af a3bd 1cd9 bcbc 29b9 b6bd 7bb6 903c
000003e0: 3d68 e3bb 4953 69bc c50e 663d 0ff9 3dbb
000003f0: b938 24be 1c96 d9bd 37b5 9eba d394 63be

layer2.2.bias f4 [32]
-0.031712893 0.023169857 -0.040224552 -0.0020162726 -0.031187622 -0.039614398 -0.050671697 0.036375303
-0.06814264 0.009128123 0.018672211 -0.010337887 0.029038502 0.07435407 -0.06177731 0.03355472
-0.016589094 -0.023692008 -0.051036555 -0.037711307 -0.014257715 -0.0006742169 0.027559876 -0.028875604
0.022722423 0.049479935 -0.019480461 -0.01842059 -0.07281771 -0.014735736 -0.035571013 0.034643017
00000000: 61e5 01bd b6ce bd3c 80c2 24bd 7123 04bb
00000010: 2f7d ffbc b542 22bd 208d 4fbd 45fe 143d
00000020: 5e8e 8bbd 1f8e 153c 77f6 983c 3e60 29bc
00000030: 27e2 ed3c f246 983d 340a 7dbd ad70 093d
00000040: dae5 87bc be15 c2bc b50b 51bd 2c77 1abd
00000050: 3199 69bc eebd 30ba 40c5 e13c 888c ecbc
00000060: 6024 ba3c 79ab 4a3d 7d95 9fbc c7e6 96bc
00000070: 7421 95bd 286e 71bc e9b2 11bd d6e5 0d3d

layer3.0.weight f4 [64, 32, 3, 3]
-0.009389417 -0.036043856 -0.06089568 -0.09570623 -0.12596121 -0.031499 -0.06726738 -0.09336544
-0.05391961 -0.022934023 -0.057294697 -0.040789507 -0.007860372 -0.036461733 -0.023468718 0.086555526
-0.0068855216 -0.008673752 0.015792364 0.062358767 0.14972468 0.0005136748 0.09315536 0.0919273
0.043316394 -0.018714344 0.051450405 -0.02839287 -0.033836372 -0.0053168144 -0.008812169 -0.007466885
-0.04901543 0.019906709 0.016613925 0.07710105 -0.0025057506 0.07873367 0.11999185 -0.0055354782
0.065700114 0.0026064003 -0.02097533 -0.025523288 -0.04203487 0.033864617 0.10180071 0.14043473
-0.032659873 0.059729066 0.07065244 0.034678273 -0.063208856 0.016258614 -0.065155104 -0.050208684
0.0045868107 0.053297598 -0.03700914 0.08729756 0.028683262 -0.019752104 0.11852718 -0.08406633
0.0045906 0.053915292 0.030319652 0.054434706 -0.009587989 0.023750208 -0.05424923 0.011872482
-0.019562991 -0.042072315 -0.02144564 -0.00638155 -0.012891613 -0.057411224 0.09679887 0.029920774
0.07865137 -0.06313515 -0.01695736 -0.05813631 -0.044884287 -0.055316173 -0.032485444 0.07042426
0.03641051 -0.0010414863 0.012604629 -0.08475232 -0.03259357 -0.024062784 -0.0627883 0.03796989
0.076237656 0.036610577 0.016060352 0.019699989 -0.048943676 -0.06076807 0.024321843 -0.013952636
-0.0012412922 -0.00010769748 -0.028593173 0.055214822 -0.09470986 0.012075132 0.028594553 0.039867107
0.04964825 0.058057692 0.02112137 0.034299724 0.04878535 -0.07637127 -0.039618 -0.15139133
0.047949392 -0.06931715 0.012423221 0.11855878 0.09067347 0.034289222 -0.0150185255 -0.03556078
0.07140421 0.028546328 0.021159485 0.032310862 0.0037799873 -0.018721294 0.061687417 -0.13936841
-0.17530434 -0.21694441 -0.15153617 -0.089054324 0.038170733 -0.008076774 0.023083307 0.091939054
-0.008366699 0.0039019897 0.015124423 -0.027319564 0.03400353 -0.0069216914 -0.04774547 -0.06697075
0.019899555 -0.018584255 0.056010026 0.043534327 0.07390125 0.0030936983 0.04235524 0.09575261
0.04823114 0.013557244 -0.014743453 -0.06368665 -0.07215001 0.02113182 -0.041132204 -0.024798024
0.06641697 0.0520968 0.072838135 0.022613911 -0.009466138 0.0102691 -0.0023377393 -0.036552496
-0.051456742 0.03551432 0.017334485 0.07875732 0.013587915 -0.0525206 -0.046143822 0.049969994
0.022772048 -0.015435715 0.041417323 0.024653608 0.07647043 0.023960566 -0.011449422 -0.055624012
0.0013105641 -0.05824746 0.016786646 0.08357473 0.0419369 0.09253805 -0.07589425 -0.0543805
0.0834586 0.015164451 -0.04269574 0.0014342492 0.009785088 0.031309575 0.081232265 0.010864246
-0.04404281 -0.022417977 -0.0012124088 -0.08322928 0.019062527 -0.0028439192 -0.0061092423 0.04261053
-0.007940086 0.030062223 0.09666708 0.039852012 -0.04503793 0.04265439 0.06240902 0.032621164
0.04228281 -0.06191985 -0.016767928 -0.019596027 -0.0019848512 -0.0045062727 0.05856276 0.011576667
-0.033068847 0.04210491 0.044298492 -0.049413547 0.0036528048 0.024842555 -0.035138026 0.007118528
0.06324126 0.04860137 0.027398895 0.028911786 0.043950554 0.00035003078 -0.037153754 0.021163946
0.013320213 0.026097434 -0.011366036 0.0670608 -0.013710376 -0.008862843 0.0032989325 -0.029706828
00000000: 12d6 19bc b9a2 13bd c06d 79bd a101 c4bd
00000010: fafb 00be 1805 01bd 7bc3 89bd 6136 bfbd
00000020: cfda 5cbd 22e0 bbbc d8ad 6abd e612 27bd
00000030: cac8 00bc e658 15bd 7841 c0bc 0644 b13d
00000040: f19f e1bb 5a1c 0ebc fd5e 813c e86b 7f3d
00000050: 6d51 193e 22a8 063a 3dc8 be3d 6144 bc3d
00000060: 886c 313d d34e 99bc a9bd 523d 2a98 e8bc
00000070: 0298 0abd ac38 aebb ea60 10bc c5ac f4bb
00000080: 67c4 48bd 6513 a33c ed19 883c 28e7 9d3d
00000090: 8537 24bb 1e3f a13d 49be f53d f562 b5bb
000000a0: c88d 863d 24d0 2a3b 75d4 abbc 3716 d1bc
000000b0: c12c 2cbd a0b5 0a3d e47c d03d 1fce 0f3e
000000c0: 5cc6 05bd 77a6 743d 3ab2 903d ce0a 0e3d
000000d0: a573 81bd c930 853c 0a70 85bd 9fa7 4dbd
000000e0: f54c 963b 954e 5a3d e596 17bd 10c9 b23d
000000f0: 29f9 ea3c 2acf a1bc 61be f23d f82a acbd
00000100: be6c 963b 48d6 5c3d eb60 f83c edf6 5e3d
00000110: f116 1dbc cc8f c23c 7134 5ebd cc84 423c
00000120: 9142 a0bc 0554 2cbd c4ae afbc 521c d1bb
00000130: 5837 53bc 0828 6bbd 7c3e c63d 691c f53c
00000140: f813 a13d 004d 81bd 29ea 8abc 5720 6ebd
00000150: 96d8 37bd 3693 62bd 750f 05bd 983a 903d
00000160: 3023 153d 7b82 88ba a583 4e3c a092 adbd
00000170: d680 05bd 511f c5bc 2797 80bd 5186 1b3d
00000180: 7d22 9c3d f9f4 153d 0091 833c df61 a13c
00000190: 2a79 48bd f1e7 78bd 9a3e c73c 9999 64bc
000001a0: dbb2 a2ba a5db e1b8 3b3c eabc f028 623d
000001b0: 3ef7 c1bd c6d6 453c 203f ea3c b14b 233d
000001c0: f75b 4b3d e7cd 6d3d b906 ad3c de7d 0c3d
000001d0: 26d3 473d 8a68 9cbd 7c46 22bd 5406 1bbe
000001e0: 9566 443d 26f6 8dbd c48a 4b3c f2ce f23d
000001f0: 03b3 b93d db72 0c3d 4310 76bc 2ea8 11bd
00000200: 5f3c 923d fdd9 e93c a856 ad3c 6558 043d
00000210: aab9 773b 665d 99bc f2ab 7c3d 98b6 0ebe
00000220: fb82 33be ad26 5ebe 4c2c 1bbe 1d62 b6bd
00000230: ea58 1c3d 7254 04bc 3419 bd3c 8b4a bc3d
00000240: 7b14 09bc 86b8 7f3b 6ecc 773c 47cd dfbc
00000250: 4947 0b3d 5bcf e2bb c190 43bd f627 89bd
00000260: 6404 a33c 023e 98bc c56a 653d 0d51 323d
00000270: 8a59 973d a5bf 4a3b b07c 2d3d f219 c43d
00000280: 048e 453d 341f 5e3c 868e 71bc 256e 82bd
00000290: 62c3 93bd a31c ad3c 3e7a 28bd 3a25 cbbc
000002a0: 9f05 883d 7463 553d 292c 953d cf40 b93c
000002b0: dc17 1bbc ba3f 283c c234 19bb 12b8 15bd
000002c0: 4ec4 52bd 7777 113d 0d01 8e3c 854b a13d
000002d0: d99f 5e3c d71f 57bd 4e01 3dbd 56ad 4c3d
000002e0: 728c ba3c 15e6 7cbc 36a5 293d 5df6 c93c
000002f0: 879c 9c3d f348 c43c 5b96 3bbc 01d6 63bd
00000300: 3cc7 ab3a e394 6ebd 2684 893c 3a29 ab3d
00000310: 07c6 2b3d 9784 bd3d 726e 9bbd 16be 5ebd
00000320: 58ec aa3d 5174 783c bae1 2ebd 6bfd bb3a
00000330: a251 203c 783e 003d 1a5d a63d f3ff 313c
00000340: 3c66 34bd e8a5 b7bc b0e9 9eba 1d74 aabd
00000350: 0429 9c3c 0c61 3abb 0a30 c8bb 6188 2e3d
00000360: 2217 02bc 0d45 f63c 64f9 c53d dd3b 233d
00000370: b179 38bd 5fb6 2e3d 9aa0 7f3d c59d 053d
00000380: bd30 2d3d ab9f 7dbd e55c 89bc d987 a0bc
00000390: 4714 02bb 5ba9 93bb 81df 6f3d 10ac 3d3c
000003a0: 3373 07bd 3376 2c3d 5672 353d dc65 4abd
000003b0: e563 6f3b 9d82 cb3c e4ec 0fbd 8a42 e93b
000003c0: a284 813d 3b12 473d a673 e03c 69d8 ec3c
000003d0: 7f05 343d 5684 b739 892e 18bd 0360 ad3c
000003e0: 063d 5a3c 49ca d53c 9c38 3abc 2c57 893d
000003f0: 7ca1 60bc 7535 11bc e732 583b bc5b f3bc

layer3.0.bias f4 [64]
0.030955063 -0.0401727 -0.03290539 -0.04309372 0.03844732 -0.019072618 -0.012373471 -0.051670752
0.012741716 0.04455303 -0.08343154 -0.06413807 -0.0062362486 0.023320194 -0.0071945884 -0.018319761
0.0010921926 -0.0998733 -0.027814785 -0.016448028 0.0005827823 -0.004551646 0.01694001 -0.022328174
-0.024769064 0.048179395 -0.015825879 0.06452147 -0.09702711 -0.008901807 0.008545586 -0.03846644
-0.022966186 -0.03185577 -0.0395488 -0.05649638 0.049908716 -0.06565392 0.01537715 -0.012763811
0.057078462 -0.020351091 0.009304775 -0.07470855 0.07776905 0.045316514 0.056861468 -0.048174035
-0.06388007 -0.0008511685 0.037387896 0.028113393 -0.07780445 0.08095386 -0.009129432 -0.0035809253
0.017142449 -0.019560574 -0.028540527 -0.020837715 0.0047896747 -0.06479229 -0.02828029 0.0018197001
00000000: 7995 fd3c 218c 24bd cdc7 06bd 0a83 30bd
00000010: f07a 1d3d 2e3e 9cbc 19ba 4abc b6a4 53bd
00000020: a1c2 503c 3d7d 363d 28de aabd d25a 83bd
00000030: 7259 ccbb fe09 bf3c 95c0 ebbb 5313 96bc
00000040: e727 8f3a 5f8a ccbd d5db e3bc 04be 86bc
00000050: dcc5 183a f925 95bb c7c5 8a3c 93e9 b6bc
00000060: 7ee8 cabc c257 453d 46a5 81bc d523 843d
00000070: 26b6 c6bd e2d8 11bc c902 0c3c fc8e 1dbd
00000080: 9523 bcbc 327b 02bd ecfd 21bd c068 67bd
00000090: 156d 4c3d 9075 86bd 71f0 7b3c 4e1f 51bc
000000a0: 1bcb 693d 55b7 a6bc 0e73 183c cc00 99bd
000000b0: 6145 9f3d cf9d 393d 92e7 683d 2352 45bd
000000c0: 8ed3 82bd f320 5fba 0d24 193d 0f4e e63c
000000d0: f157 9fbd 23cb a53d 9d93 15bc f5ad 6abb
000000e0: 526e 8c3c 7f3d a0bc d3cd e9bc dbb3 aabc
000000f0: b4f2 9c3b d2b1 84bd 11ac e7bc 0183 ee3a

layer3.2.weight f4 [64, 64, 3, 3]
0.0035598467 -0.040536143 -0.11769088 0.021617575 -0.00061422354 -0.06512935 -0.03377348 -0.07018511
-0.10606956 -0.02440293 0.027025709 -0.0068718335 0.067373075 0.053988673 0.013076386 0.11436705
0.0797504 0.031535335 0.016534561 0.027957503 -0.010654183 0.0025175267 0.008275499 0.007893796
0.023221767 0.024731005 -0.0013767527 -0.12746535 -0.15436964 -0.10714937 -0.089582756 -0.09653639
-0.10671897 -0.076835185 -0.07640765 -0.19712566 0.042616885 0.0232428 -0.051324338 0.05688501
0.053261563 -0.097617656 0.023353538 -0.0342005 -0.15627506 0.076696336 0.06347427 0.021886405
0.07267839 -0.0057260226 0.01558598 0.038359534 0.080261074 -0.00970678 -0.00094319263 0.033603907
-0.014838147 0.07432553 0.021169057 -0.022395391 0.090810135 0.05523229 -0.060065083 0.009646904
0.0027857537 -0.04087727 -0.023211425 -0.0032588283 -0.03576203 0.004510752 -0.074469976 -0.028442264
0.03813275 0.046045057 0.002719286 0.049798667 0.00535458 0.041675672 0.081283495 0.014713826
-0.03663095 -0.10317194 -0.10265898 -0.08496181 -0.011466791 -0.07830936 -0.032374706 -0.03220174
-0.08704267 -0.029558377 0.04565344 -0.006349283 0.025542602 0.0028804948 -0.024663014 0.007147156
-0.04164948 -0.031826098 0.022944663 0.005055407 0.060717665 0.014672553 0.024396032 0.015888333
-0.022645872 0.02910441 0.023160726 -0.04728832 -0.05075845 -0.029985959 -0.091298774 0.047425315
0.0052979244 -0.095552646 0.05470936 0.025657773 -0.10069502 0.08279272 0.07441859 0.082467414
0.03103325 0.068517655 0.026008677 0.048514526 0.07667981 0.044642154 0.0028072128 0.024858674
0.032613482 0.011272512 0.01650464 -6.694292e-05 -0.0031534096 -0.02708714 -0.029392563 0.06016009
0.021745756 -0.03275376 0.06210923 0.00384651 -0.0039253645 0.010154473 -0.030303758 -0.085762985
-0.023419255 -0.05994185 0.0015835398 -0.021700352 0.0034128143 -0.022416146 0.0021037895 -0.015659764
-0.03990381 0.061108746 0.013419932 0.0027983014 0.06457751 -0.019096024 -0.016048633 0.041833024
0.008669499 -0.076216295 0.021244649 0.024410037 0.021125702 0.032159228 0.01796204 0.035319455
0.05820146 0.03656388 -0.02588789 0.021139983 -0.020021642 0.010058814 0.0041632764 -0.019004293
-0.0020279887 -0.017148882 0.058024988 0.014941857 0.026437482 0.02979099 -0.103665784 0.033026796
-0.041332766 -0.12689108 -0.08844137 -0.11205297 -0.13737115 0.0020209183 0.058682337 -0.017723097
-0.028610328 0.022724682 -0.004977909 0.027607892 -0.0082578575 -0.0039107804 -0.0107275685 -0.060926728
-0.04800482 -0.008115949 -0.021063041 -0.08392071 -0.045078393 -0.105168685 -0.09422813 0.031179823
-0.037576668 -0.06126766 -0.021261577 -0.03064587 -0.0040921676 0.023381991 -0.017545152 -0.11117669
-0.0069435574 0.004299133 0.011402678 -0.01773982 0.02380514 -0.012068718 -0.0030224603 0.024402913
-0.057430003 -0.017108738 0.035981808 -0.030224124 0.048522957 -0.04363424 -0.07531812 0.08168657
-0.0040526534 -0.03480577 0.020300772 -0.0050497036 -0.03220983 -0.034779575 -0.022251215 -0.0038335677
-0.013566651 0.03481102 0.029384619 -0.016322749 -0.05262915 -0.06940953 -0.010465068 -0.07403812
-0.105207875 -0.015890524 -0.10123704 -0.11322236 0.058109876 -0.01288085 -0.06313773 0.041480538
00000000: 514c 693b 3a09 26bd eb07 f1bd 5717 b13c
00000010: d803 21ba 8962 85bd 1056 0abd 36bd 8fbd
00000020: ff3a d9bd a7e8 c7bc 0565 dd3c 1e2d e1bb
00000030: e5fa 893d 3a23 5d3d 573e 563c 4639 ea3d
00000040: 2d54 a33d 322b 013d 7d73 873c 2207 e53c
00000050: e28e 2ebc 17fd 243b f595 073c fb54 013c
00000060: 933b be3c ad98 ca3c 2874 b4ba 4786 02be
00000070: 1313 1ebe 2171 dbbd 2a77 b7bd dfb4 c5bd
00000080: 7a8f dabd c45b 9dbd 9d7b 9cbd 4fdb 49be
00000090: 0b8f 2e3d af67 be3c 7839 52bd 4200 693d
000000a0: cc28 5a3d c4eb c7bd eb4f bf3c d315 0cbd
000000b0: 9206 20be f812 9d3d ccfe 813d 1e4b b33c
000000c0: 68d8 943d 5ca1 bbbb 575c 7f3c e31e 1d3d
000000d0: eb5f a43d 3009 1fbc 9640 77ba 40a4 093d
000000e0: b31b 73bc fc37 983d bb6a ad3c 8a76 b7bc
000000f0: aafa b93d 413b 623d ce06 76bd 0c0e 1e3c
00000100: 3191 363b ed6e 27bd e325 bebc 1192 55bb
00000110: 357b 12bd eece 933b b783 98bd c0ff e8bc
00000120: 1631 1c3d be99 3c3d 0c36 323b b0f9 4b3d
00000130: 7975 af3b 1cb4 2a3d f677 a63d 4212 713c
00000140: 560a 16bd cf4b d3bd df3e d2bd 7500 aebd
00000150: 35df 3bbc a860 a0bd 579b 04bd f9e5 03bd
00000160: 6d43 b2bd 6924 f2bc 1aff 3a3d a50d d0bb
00000170: b83e d13c afc6 3c3b 170a cabc b132 ea3b
00000180: a598 2abd 155c 02bd 72f6 bb3c d4a7 a53b
00000190: 16b3 783d 2665 703c 30da c73c 4028 823c
000001a0: d683 b9bc 5f6c ee3c 90bb bd3c 66b1 41bd
000001b0: 18e8 4fbd 1da5 f5bc dafa babd 0c41 423d
000001c0: 369a ad3b 1bb1 c3bd ec16 603d 4030 d23c
000001d0: 3139 cebd 3b8f a93d c668 983d ade4 a83d
000001e0: 7139 fe3c fc52 8c3d 2610 d53c 2bb7 463d
000001f0: 4e0a 9d3d b1da 363d 37f9 373b 6ba4 cb3c
00000200: b795 053d 58b0 383c bd34 873c b563 8cb8
00000210: 6fa9 4ebb dae5 ddbc acc8 f0bc 6d6a 763d
00000220: 2824 b23c cf28 06bd 3f66 7e3d bb15 7c3b
00000230: 58a0 80bb f25e 263c 963f f8bc 81a4 afbd
00000240: bdd9 bfbc 9685 75bd c78e cf3a f0c4 b1bc
00000250: 86a9 5f3b 11a2 b7bc bbdf 093b e848 80bc
00000260: 2d72 23bd 2a4d 7a3d 46df 5b3c b563 373b
00000270: 3741 843d 446f 9cbc 6c78 83bc 1b59 2b3d
00000280: 840a 0e3c 4a17 9cbd 4209 ae3c 8ff7 c73c
00000290: cf0f ad3c 65b9 033d 2125 933c 22ab 103d
000002a0: a764 6e3d 02c4 153d d712 d4bc c22d ad3c
000002b0: 6d04 a4bc b9cd 243c 186c 883b e4ae 9bbc
000002c0: 01e8 04bb d07b 8cbc 9cab 6d3d b1ce 743c
000002d0: 6b93 d83c 3c0c f43c ba4e d4bd 1b47 073d
000002e0: 8c4c 29bd bcef 01be c020 b5bd 077c e5bd
000002f0: 06ab 0cbe 6271 043b e45c 703d 0730 91bc
00000300: 3560 eabc 1d29 ba3c ba1d a3bb f229 e23c
00000310: f74b 07bc 0126 80bb afc2 2fbc 4e8e 79bd
00000320: b4a0 44bd c2f8 04bc 668c acbc 9fde abbd
00000330: 1fa4 38bd ae62 d7bd aefa c0bd d46c ff3c
00000340: fee9 19bd ccf3 7abd c22c aebc 0c0d fbbc
00000350: 9717 86bb 978b bf3c daba 8fbc 9bb0 e3bd
00000360: c886 e3bb bedf 8c3b 4cd2 3a3c 1953 91bc
00000370: ff02 c33c dfbb 45bc 7814 46bb 9ee8 c73c
00000380: b93b 6bbd a027 8cbc a961 133d 9598 f7bc
00000390: 02c0 463d d1b9 32bd 6340 9abd 4a4b a73d
000003a0: 1fcc 84bb 7f90 0ebd ce4d a63c fc77 a5bb
000003b0: 74ee 03bd 0775 0ebd 2e48 b6bc 983c 7bbb
000003c0: a946 5ebc 0096 0e3d 03b8 f03c 49b7 85bc
000003d0: aa91 57bd 9526 8ebd ad75 2bbc 4ca1 97bd
000003e0: 3a77 d7bd d82c 82bc 5d55 cfbd 20e1 e7bd
000003f0: 9f04 6e3d 330a 53bc 5b4e 81bd 7fe7 293d

layer3.2.bias f4 [64]
0.0069486112 -0.022695651 0.026018247 -0.062373832 0.01406925 0.029002858 -0.042893138 0.005838291
-0.0067850435 0.026560692 0.026555222 0.050954986 -0.04892996 -0.04439823 -0.15424727 -0.04139029
-0.039223008 -0.03455932 0.036416713 -0.03213556 -0.0069486657 0.016019586 -0.0007767622 -0.027842578
-0.026534332 0.020461727 0.055636995 -0.047422737 0.014301429 -0.09779866 -0.07972996 -0.032770574
-0.04407693 0.0068905223 -0.022647694 0.02221533 -0.03311982 0.038040984 0.016222002 0.002863442
0.0332462 -0.04884173 -0.035631977 0.04989152 -0.12224172 -0.14557764 -0.033326194 -0.0034514023
-0.09407738 -0.13487388 0.036174033 -0.12882785 0.07234256 -0.094159804 -0.05125577 0.091011465
-0.09362462 0.03458522 -0.06395329 0.027168356 -0.087029204 0.10221935 -0.14526382 -0.02394795
00000000: 2db1 e33b 3bec b9bc 3824 d53c b47b 7fbd
00000010: b682 663c 6797 ed3c b7b0 2fbd 224f bf3b
00000020: 1255 debb cf95 d93c 568a d93c 2db6 503d
00000030: c86a 48bd ebda 35bd fff2 1dbe dd88 29bd
00000040: 4ea8 20bd 138e 0dbd b129 153d 94a0 03bd
00000050: a2b1 e3bb 823b 833c a19f 4bba 1e16 e4bc
00000060: 875e d9bc 5a9f a73c 9ee3 633d 583e 42bd
00000070: 8a50 6a3c aa4a c8bd 7649 a3bd 703a 06bd
00000080: 038a 34bd e4c9 e13b a887 b9bc ecfc b53c
00000090: a6a8 07bd ddd0 1b3d 01e4 843c 96a8 3b3b
000000a0: 2b2d 083d 440e 48bd d6f2 11bd 0d5b 4c3d
000000b0: de59 fabd 4e12 15be 0c81 08bd ec30 62bb
000000c0: a4ab c0bd 611c 0abe 392b 143d 73eb 03be
000000d0: 5628 943d dbd6 c0bd 92f1 51bd 3864 ba3d
000000e0: 44be bfbd 3ba9 0d3d f1f9 82bd 2c90 de3c
000000f0: 5e3c b2bd 6158 d13d 0ac0 14be 7e2e c4bc

fc1.weight f4 [64, 1024]
-0.076455034 -0.01963018 -0.0807932 -0.047380053 -0.059262875 -0.017522227 -0.041074827 -0.053939737
-0.089629285 -0.016825266 -0.031712994 -0.0043642432 -0.078132324 -0.06218561 -0.043258104 -0.073854044
-0.025833944 -0.056119088 0.001062865 -0.065608375 -0.04977851 -0.011963746 -0.028522506 0.0027124046
0.016669318 -0.023610238 -0.01261452 -0.0010207142 -0.055889294 -0.053583205 -0.063904114 -0.050844494
0.053377528 0.05445617 0.039358184 0.07351475 0.0301784 0.046064973 0.0072575426 0.015859121
0.05596875 0.02020531 0.0075266915 0.08257011 0.09681888 0.06257139 0.0011294911 0.082269385
0.0009919016 0.015302173 -0.03306904 -0.0114469845 -0.014439137 0.0040708124 0.02112622 -0.038311996
0.019914312 0.03177807 -0.0037607346 -0.034862835 -0.024690146 -0.012094893 -0.014817847 -0.05374126
-0.020451268 0.023324352 -0.0044926703 0.020653108 -0.024945017 0.028004544 0.01390267 -0.031144505
-0.02749858 -0.008845763 -0.002573028 -0.0015853795 -0.056285933 -0.029102 0.0026560503 -0.025604066
-0.03852157 -0.031067878 -0.06847367 -0.04618779 -0.03146687 -0.0129296435 -0.019530067 -0.02478824
-0.0033980259 -0.021356588 -0.012183415 -0.036069896 -0.051920705 -0.04858355 -0.0053002317 -0.07517636
-0.0068448507 -0.032267597 -0.018196428 0.025400613 0.02265324 -0.00945664 0.0038729669 -0.018064378
0.0023494556 0.025711164 -0.028339893 0.001734905 -0.029133976 0.0055807307 -0.027543839 0.019317795
-0.055722926 0.054016266 0.020168416 0.019267488 -0.0049634543 0.028661948 -0.005210358 0.021057403
-0.031281553 0.04729375 0.0035965324 0.02368271 -0.07277509 -0.00049420045 -0.024803927 0.025078543
-0.008578604 0.004423946 0.014393534 -0.030946191 7.718307e-05 -0.031094635 -0.027432207 -0.0066997954
-0.012482989 -0.016833203 -0.025621807 -0.008716828 0.021098604 0.015494622 0.02205225 -0.019173948
0.041229665 -0.030865205 0.022752618 0.005813204 0.04652858 -0.00911256 0.040013887 0.03593838
0.012402964 0.03896564 0.08255005 0.06442341 0.046855386 0.018864004 0.021431211 0.053716194
0.030047132 -0.02042573 -0.008559821 0.0066930186 0.011554843 -0.012797523 -0.024472674 0.008249465
0.032370888 -0.018244768 -0.022555273 -0.006558284 -0.00017039083 -0.02154041 -0.036584802 -0.017510427
-0.05182707 -0.02296218 -0.034244463 -0.058577344 0.008407359 -0.0023297162 0.04514026 -0.024138788
-0.044369426 -0.0276567 0.060866475 0.018574506 -0.018746153 -0.0045750234 -0.018271044 -0.075933814
0.022542628 -0.0045304243 -0.00077167834 0.042621054 0.025968228 0.02355275 0.01905701 0.023969045
-0.025225779 0.0031773387 0.009470317 0.008765953 -0.02342209 0.013379427 0.009451637 0.011922441
-0.038222544 -0.040097583 -0.0030218347 -0.041891087 0.008721185 -0.033820607 0.008449098 0.016066475
-0.0363269 0.011229506 0.00095773384 -0.015179631 0.011383074 0.010529642 0.012993911 -0.047155432
-0.0040577124 -0.0101185925 0.00690612 -0.013954957 0.005887858 0.044922754 0.036773015 0.029014274
-0.0007273467 0.044834606 0.017254328 -0.016721992 0.015013118 0.046935048 0.019074481 -0.0040726303
0.0075483536 0.023337414 0.023746846 0.027468918 -0.002299964 0.0032248523 0.02996929 -0.01445767
0.018302131 -0.024121184 -0.024412801 0.029932527 -0.019773373 0.008415728 0.028799739 0.031421304
00000000: 7594 9cbd 79cf a0bc e876 a5bd 9611 42bd
00000010: a1bd 72bd c68a 8fbc 143e 28bd eaef 5cbd
00000020: 8f8f b7bd 24d5 89bc 7ce5 01bd ed01 8fbb
00000030: d703 a0bd 57b6 7ebd 692f 31bd ca40 97bd
00000040: b5a1 d3bc 21dd 65bd d54f 8b3a af5d 86bd
00000050: 8de4 4bbd 9603 44bc 08a8 e9bc 99c2 313b
00000060: 188e 883c 426a c1bc 22ad 4ebc 7cc9 85ba
00000070: 2cec 64bd 107a 5bbd 29e0 82bd 5142 50bd
00000080: 65a2 5a3d 6f0d 5f3d 0c36 213d e78e 963d
00000090: b138 f73c a0ae 3c3d aed0 ed3b fdea 813c
000000a0: 7d3f 653d 9b85 a53c 77a2 f63b 851a a93d
000000b0: fa48 c63d 6e25 803d 6f0b 943a da7c a83d
000000c0: b202 823a f7b5 7a3c 6773 07bd 228c 3bbc
000000d0: 2192 6cbc 7364 853b e510 ad3c 0aed 1cbd
000000e0: 5723 a33c b929 023d a876 76bb 55cc 0ebd
000000f0: fd42 cabc a829 46bc 8ec6 72bc cc1f 5cbd
00000100: 6b89 a7bc b612 bf3c 4037 93bb b530 a93c
00000110: 7e59 ccbc c969 e53c 06c8 633c c322 ffbc
00000120: b444 e1bc d2ed 10bc 3fa0 28bb 82cc cfba
00000130: 148c 66bd 5167 eebc 2111 2e3b 9ebf d1bc
00000140: cbc8 1dbd 1082 febc ec3b 8cbd 682f 3dbd
00000150: 68e3 00bd dbd6 53bc 85fd 9fbc b510 cbbc
00000160: 6ab1 5ebb 03f4 aebc f29c 47bc 07be 13bd
00000170: ceaa 54bd 8bff 46bd 91ad adbb 10f6 99bd
00000180: c54a e0bb 072b 04bd ad10 95bc f214 d03c
00000190: 4a93 b93c 06f0 1abc 9ad1 7d3b bffb 93bc
000001a0: 53f9 193b 38a0 d23c 1029 e8bc c065 e33a
000001b0: 60aa eebc 90de b63b 9ea3 e1bc 5a40 9e3c
000001c0: b93d 64bd 2940 5d3d 3c38 a53c dad6 9d3c
000001d0: 79a4 a2bb 76cc ea3c a7bb aabb 9380 ac3c
000001e0: 1621 00bd 17b7 413d cdb3 6b3b 3e02 c23c
000001f0: 1b0b 95bd 3b8d 01ba 9b31 cbbc 8471 cd3c
00000200: 468d 0cbc c0f6 903b dbd2 6b3c de82 fdbc
00000210: 58dd a138 2dba febc 82b9 e0bc f589 dbbb
00000220: 7385 4cbc c9e5 89bc d3e4 d1bc 07d1 0ebc
00000230: fbd6 ac3c 28dd 7d3c eca6 b43c af12 9dbc
00000240: 70e0 283d 07d9 fcbc b363 ba3c b17c be3b
00000250: c194 3e3d d94c 15bc 9ae5 233d 1f34 133d
00000260: cd35 4b3c 6f9a 1f3d 0010 a93d 6cf0 833d
00000270: 6feb 3f3d af88 9a3c 8290 af3c 8305 5c3d
00000280: 6725 f63c dc53 a7bc 7e3e 0cbc 1c51 db3b
00000290: 8650 3d3c b4ac 51bc eb7a c8bc c428 073c
000002a0: 5697 043d 0d76 95bc d6c5 b8bc e0e6 d6bb
000002b0: f1aa 32b9 8475 b0bc f2d9 15bd 0772 8fbc
000002c0: 9f48 54bd 2f1b bcbc ec43 0cbd ccee 6fbd
000002d0: 05bf 093c 27ae 18bb fee4 383d b5be c5bc
000002e0: b7bc 35bd 4e90 e2bc 204f 793d 9029 983c
000002f0: 8891 99bc 14ea 95bb 28ad 95bc 3083 9bbd
00000300: 51ab b83c f473 94bb 754a 4aba 6a93 2e3d
00000310: 52bb d43c b2f1 c03c 721d 9c3c bb5a c43c
00000320: 4ba6 cebc e63a 503b 6329 1b3c 129f 0f3c
00000330: afdf bfbc 6235 5b3c 0adb 1a3c 5856 433c
00000340: 3e8f 1cbd 5d3d 24bd f909 46bb fd95 2bbd
00000350: 4de3 0e3c 7a87 0abd 166e 0a3c d79d 833c
00000360: 84cb 14bd f6fb 373c 6e10 7b3a fdb3 78bc
00000370: 1380 3a3c 8584 2c3c 6ae4 543c 0e26 41bd
00000380: 8ff6 84bb 74c8 25bc bc4c e23b 55a3 64bc
00000390: efee c03b ec00 383d 4d9f 163d 58af ed3c
000003a0: 69ab 3eba 7ea4 373d f358 8d3c 8ffc 88bc
000003b0: 95f9 753c f73e 403d 1642 9c3c b373 85bb
000003c0: 2e58 f73b 1b2e bf3c bf88 c23c 7f06 e13c
000003d0: feba 16bb 0b58 533b 2882 f53c dddf 6cbc
000003e0: 5aee 953c ca99 c5bc 5bfd c7bc 0f35 f53c
000003f0: c5fb a1bc 1fe2 093c 6eed eb3c a0b3 003d

fc1.bias f4 [64]
0.027662454 0.025066573 0.043920565 0.00030918288 -0.06995914 0.040857375 0.049597874 0.004309332
0.001600243 0.032272875 0.013004478 -0.037210204 0.02113856 -0.029661555 0.08653576 -0.025967369
-0.029940782 0.07882248 0.026402289 0.0640115 0.010401683 -0.022399684 0.011758414 -0.05704716
0.07657531 0.0005256313 -0.026264902 -0.05025692 -0.004001171 0.055499226 0.012973539 -0.0061222464
0.04382149 0.035613388 -0.021681523 0.049751673 -0.059173856 0.023968851 0.06061996 -0.011097465
-0.020996226 0.059524614 0.07888434 0.1060415 -0.01670577 0.010187376 0.0013240965 0.051198315
-0.072147585 -0.013031486 0.012668327 0.02125332 0.028726637 -0.014901434 -0.004671931 -0.059662983
0.03415516 -0.03482951 0.04717082 0.13057193 0.028883802 -0.040017776 0.081085965 -0.02207291
00000000: 5f9c e23c 6a58 cd3c 0de6 333d d319 a239
00000010: bd46 8fbd 105a 273d 2427 4b3d 4c35 8d3b
00000020: 3fbf d13a 9030 043d bc10 553c ba69 18bd
00000030: c62a ad3c cafc f2bc a939 b13d 85b9 d4bc
00000040: 5f46 f5bc ae6d a13d 9d49 d83c 7618 833d
00000050: d26b 2a3c 8b7f b7bc 5da6 403c 48aa 69bd
00000060: 84d3 9c3d 85ca 093a 7e29 d7bc 33da 4dbd
00000070: 411c 83bb 2853 633d f78e 543c 209d c8bb
00000080: 2a7e 333d 58df 113d 739d b1bc 69c8 4b3d
00000090: 4960 72bd 535a c43c a34c 783d 24d2 35bc
000000a0: 4700 acbc 15d0 733d 1d8e a13d 492c d93d
000000b0: 8ada 88bc f4e8 263c 4e8d ad3a 53b5 513d
000000c0: 1dc2 93bd 0482 55bc d18e 4f3c 711b ae3c
000000d0: 2054 eb3c 2525 74bc ff16 99bb 2c61 74bd
000000e0: 48e6 0b3d 63a9 0ebd 3136 413d a6b4 053e
000000f0: b99d ec3c aee9 23bd 6610 a63d 3fd2 b4bc
