HW3/LSTM.pth (torch, 865008 bytes, 30 tensors)

CNN_feature_extractor.layer1.0.weight f4 [8, 1, 5, 5]
0	0x3e016be3	0.12638812
1	0xbcb41937	-0.02198468
2	0xbe0e9482	-0.13923839
3	0x3c86e232	0.01646528
4	0xbeacf103	-0.33777627
5	0x3db48dfa	0.088161424
6	0x3e8e18a5	0.27753177
7	0x3e314bbe	0.1731405
8	0xbe33e8e1	-0.17569305
9	0xbe7431f3	-0.23847179
10	0x3e339810	0.17538476
11	0x3e8a753e	0.27042574
12	0x3e32779d	0.17428441
13	0x3c4883cf	0.012238457
14	0x3cf1ebf1	0.029531451
15	0xbdf63968	-0.12022668
16	0xbc8a4dfd	-0.01688289
17	0x3ea858cd	0.3288025
18	0x3e740594	0.23830253
19	0x3caacbee	0.020849194
20	0xbe8f18ca	-0.279486
21	0xbdf4c817	-0.119522266
22	0x3dc755ff	0.09733199
23	0xbe2c295c	-0.16812652
24	0x3e19c06b	0.15014808
25	0x3e0308e6	0.12796363
26	0xbe2a813f	-0.16650866
27	0xbe0633bb	-0.13105671
28	0x3d4197b2	0.04726381
29	0x3e90f129	0.2830899
30	0x3e3bae07	0.18328105
31	0xbab28aee	-0.0013621727
32	0x3e24d316	0.16096148
33	0x3e1ce030	0.15319896
34	0x3e8b28f5	0.27179685
35	0x3e03c519	0.12868156
36	0xbd8ec663	-0.06971433
37	0x3e59aa7e	0.21256444
38	0x3df79c92	0.1209041
39	0xbe5790f2	-0.21051386
40	0x3e042eb7	0.12908445
41	0x3d518349	0.051150594
42	0x3da254fe	0.07926367
43	0xbda520d8	-0.08062905
44	0xbc979b76	-0.018506747
45	0x3e67b760	0.22628546
46	0x3e1bd72d	0.15218802
47	0x3dc8f359	0.0981204
48	0xbe6db77c	-0.23214525
49	0xbe735693	-0.23763494
50	0xbe02c8cf	-0.12771915
51	0xbde04d4d	-0.10952244
52	0xbe3bfde6	-0.18358573
53	0x3e06984b	0.13144033
54	0x3e8dd82a	0.27703983
55	0xbe471ed1	-0.1944535
56	0x3e014653	0.12624483
57	0x3db5ccdf	0.08876967
58	0xbe0b20ea	-0.13586774
59	0x3eaafd3b	0.33396325
60	0x3d8b55dc	0.06803486
61	0xbc48ae25	-0.012248551
62	0xbe2adde0	-0.16686201
63	0xbd0c953a	-0.034322
64	0x3e8a48c8	0.27008653
65	0xbe45c81d	-0.19314618
66	0xbde8bd54	-0.113642365
67	0xbe46e129	-0.1942183
68	0x3d2c5d99	0.04208145
69	0x3e0a7244	0.13520151
70	0xbd5ca78c	-0.053870723
71	0x3d87610e	0.066103086
72	0x3e3069ee	0.17227909
73	0x3e9032da	0.28163797
74	0x3e1214f6	0.14265808
75	0xbe5fa623	-0.2184072
76	0x3cf463f3	0.029832816
77	0xbe853549	-0.26017216
78	0xbe62a61f	-0.22133683
79	0x3e41a09e	0.18908927
80	0x3e29bcd8	0.16575944
81	0xbe19047e	-0.1494312
82	0xbe6af305	-0.22944267
83	0x3e138561	0.14406349
84	0x3db13c2c	0.08654055
85	0xbe672f01	-0.22576524
86	0x3db8490a	0.08998306
87	0xbe84a5c4	-0.2590772
88	0x3d2ef83c	0.042717203
89	0x3e0c1962	0.13681558
90	0x3d4d34be	0.050099127
91	0xbe5f07b5	-0.21780284
92	0xbe1b976f	-0.15194486
93	0x3ea03136	0.31287545
94	0x3e842987	0.25812933
95	0x3dc3fd66	0.09569816
96	0x3e4af65e	0.19820544
97	0x3ea2ba54	0.31782782
98	0x3dfe5145	0.12417845
99	0x3b073e1e	0.002063639
100	0x3e2cff4b	0.16894262
101	0xbd28bbd3	-0.041194748
102	0x3e37db84	0.17954832
103	0xbe3927e0	-0.18081617
104	0x3e37b92a	0.17941728
105	0xbd23bc3d	-0.03997444
106	0xbdcbb25e	-0.0994613
107	0x3e2a626d	0.16639109
108	0xbd88b109	-0.06674392
109	0xbdc1bce7	-0.094598584
110	0x3ca0d79d	0.019634062
111	0xbcb8aaba	-0.022542346
112	0xbde85376	-0.11344044
113	0x3dff22d1	0.124578126
114	0x3e378c29	0.1792456
115	0xbd651083	-0.05592395
116	0xbdee7cd0	-0.116449
117	0xbc741c3e	-0.014899312
118	0x3e294864	0.16531521
119	0xbe1f1a86	-0.15537462
120	0xbe3fa56d	-0.18715449
121	0xbd947dfb	-0.07250591
122	0x3d9b5171	0.07583893
123	0xbd7aa9ff	-0.061197277
124	0xbdb56856	-0.08857791
125	0xbe23a159	-0.15979518
126	0x3d4bc546	0.04974868
127	0xbe43792c	-0.19089192
128	0xbdff8a3d	-0.12477539
129	0xbe2b03e8	-0.16700709
130	0xbe03eeca	-0.1288406
131	0xbbe8027e	-0.007080375
132	0x3dd90113	0.10595908
133	0xbda4657b	-0.08027168
134	0xbe24d147	-0.16095458
135	0x3e482e49	0.19548906
136	0xbd99835a	-0.074957564
137	0xbddeb63f	-0.108746044
138	0xbd1e16fb	-0.038596135
139	0x3cc07d01	0.023497107
140	0x3e3bf88f	0.18356536
141	0x3e81dcb0	0.25363684
142	0xbc3fb048	-0.011699744
143	0xbe000975	-0.12503608
144	0x3e093cc3	0.13402085
145	0x3e33ab23	0.17545752
146	0x3e305cba	0.17222872
147	0x3e354f60	0.1770606
148	0x3e13f4a2	0.14448789
149	0xbe143f8e	-0.14477369
150	0xbdbcb715	-0.092146076
151	0xbd819a0a	-0.06328209
152	0xbcec8d57	-0.02887599
153	0xbe8007ea	-0.25006038
154	0xbd239acc	-0.039942548
155	0xbdbd1f33	-0.092344664
156	0xbe6d44ba	-0.23170748
157	0xbdcfd29c	-0.101475924
158	0xbd9d9f41	-0.07696391
159	0xbe121bf2	-0.14268473
160	0x3ce4db72	0.02793667
161	0x3e4614ce	0.19343874
162	0x3e37a78a	0.17935005
163	0x3e5fb63d	0.21846862
164	0x3a5aa198	0.00083401194
165	0x3e851d41	0.2599888
166	0x3d95807c	0.07299897
167	0x3dbb5556	0.09147136
168	0x3d7267af	0.05918091
169	0x3d67e036	0.05661031
170	0x3cd112a6	0.025521588
171	0xbcbbf4cf	-0.022943882
172	0xbd227413	-0.03966148
173	0xbc002118	-0.00782039
174	0x3e17083a	0.14749232
175	0xbbff7474	-0.0077958647
176	0x3e3a704b	0.18206899
177	0x3ddc3f29	0.10754234
178	0xbe60b265	-0.21943052
179	0xbdbcef0f	-0.09225284
180	0x3dadba08	0.08482748
181	0x3eb3268e	0.34990352
182	0x3e41c4f7	0.18922792
183	0xbe4a3c00	-0.1974945
184	0xbe4bd554	-0.19905597
185	0x3db273d9	0.087135024
186	0x3ebb5fbc	0.36596477
187	0xbe69f74c	-0.22848243
188	0xbe5209f2	-0.20511606
189	0xbe6bded3	-0.2303422
190	0x3dbac177	0.09118932
191	0x3e6522fe	0.2237663
192	0x3d22c513	0.039738726
193	0xbe33fc07	-0.1757661
194	0x3dca775f	0.098860495
195	0x3e893f97	0.26806328
196	0x3e237c19	0.15965308
197	0xbdf38b90	-0.11891854
198	0x3dfd7f6b	0.12377819
199	0xbdba3b39	-0.09093327

CNN_feature_extractor.layer1.0.bias f4 [8]
0	0x3e20c2a7	0.15699254
1	0x3d3663c4	0.044528738
2	0xbd851b92	-0.06499399
3	0x3d7bdec4	0.061491743
4	0x3e26aedc	0.16277641
5	0xb922ef5b	-0.00015538691
6	0xbe039b61	-0.12852241
7	0x3d9b44d1	0.07581485

CNN_feature_extractor.layer1.3.weight f4 [8, 8, 3, 3]
0	0xbd48702b	-0.048935097
1	0x38146082	3.537583e-05
2	0xbd514b21	-0.05109704
3	0xbd9c0e28	-0.076198876
4	0xbc6b897f	-0.014376043
5	0xbdf063d1	-0.117377885
6	0xbde55259	-0.11197347
7	0xbd73ec11	-0.059551302
8	0x3cccbd25	0.024992535
9	0x3e0dc595	0.13844903
10	0xba9a820f	-0.0011788028
11	0x3d174072	0.036926694
12	0x3e49b3f5	0.19697554
13	0x3e6a3a71	0.22873856
14	0x3e198f2e	0.14996025
15	0x3deb7a4f	0.11497938
16	0x3e0ebb26	0.13938579
17	0x3e29f8db	0.16598837
18	0x3e1ae15e	0.15125033
19	0x3dfeda95	0.12444035
20	0x3e2a0f4b	0.16607396
21	0x3dac7f75	0.08422748
22	0x3e1b54b7	0.15169035
23	0xbb82fde7	-0.0039975527
24	0x3d984d89	0.07436664
25	0x3e05cc59	0.13066234
26	0x3dd7b37c	0.10532281
27	0xbdb7201f	-0.089416735
28	0x3e0fc92d	0.14041586
29	0x3db16f51	0.0866381
30	0x3e4215de	0.18953654
31	0x3dc02ba4	0.09383324
32	0xbcb68feb	-0.022285422
33	0x3e27177e	0.16317555
34	0x3c682200	0.0141682625
35	0x3e018400	0.1264801
36	0xbdc7c852	-0.09755005
37	0xbdfbd4ba	-0.12296434
38	0xbd1feb2c	-0.039042637
39	0xbc83d5b2	-0.016093109
40	0xbe05ca1f	-0.13065384
41	0x3d61964b	0.05507497
42	0xbe024d9e	-0.12724921
43	0xbd361e1c	-0.04446231
44	0x3d3d2312	0.046176024
45	0x3c9b18cf	0.018932728
46	0xbe10544b	-0.14094655
47	0xbe379bbe	-0.17930505
48	0xbc525924	-0.012838636
49	0xbd83304c	-0.06405696
50	0xbe0cc679	-0.13747586
51	0x3c96cb28	0.01840742
52	0xbdafb353	-0.08579125
53	0xbd99228e	-0.07477294
54	0xbde9a4d3	-0.11408391
55	0xbe3e632e	-0.18592522
56	0xbe21db5a	-0.15806332
57	0xbd904fa4	-0.0704644
58	0xbda040a4	-0.07824829
59	0xbe10f258	-0.14154947
60	0x3bf5c829	0.0075006676
61	0xbdfd17ff	-0.123580925
62	0xbe04fef4	-0.12987882
63	0xbd7094d8	-0.0587357
64	0x3e035d5c	0.12828583
65	0x3e3607c6	0.17776403
66	0x3cd71888	0.026256815
67	0x3dd0eef7	0.10201829
68	0x3ddf1729	0.10893089
69	0x3e3b9bf1	0.18321206
70	0x3dec97c9	0.11552388
71	0x3e4170a1	0.18890621
72	0xbd59993f	-0.053124662
73	0xbde6ffe4	-0.11279276
74	0x3d59c1e1	0.053163413
75	0xbdfc729c	-0.123265475
76	0xbd4a699f	-0.049417134
77	0x3da21bf3	0.07915487
78	0xbc9a83ef	-0.018861739
79	0x3e0aebcb	0.1356651
80	0x3dffe45e	0.124947295
81	0xbe1c11d1	-0.15241171
82	0xbcf3310a	-0.02968647
83	0xbd59b28e	-0.0531488
84	0x3cbc0f71	0.022956582
85	0xbd925240	-0.07144594
86	0xbdf17010	-0.11788952
87	0x3e2d274f	0.16909526
88	0xbe132819	-0.14370765
89	0x3d16dbee	0.036830835
90	0xbd984c8c	-0.07436475
91	0x3e43f67f	0.19137
92	0x3dd7b04e	0.10531674
93	0xbd13d06f	-0.03608745
94	0xbd717f56	-0.058959328
95	0xbd9f7695	-0.077862896
96	0xbc8d3948	-0.017239228
97	0x3d8590b8	0.065217435
98	0x3ca7ceaf	0.020484297
99	0x3c806601	0.01567364
100	0x3e21cdb4	0.15801126
101	0x3e06cc01	0.13163759
102	0x3e5e5cfe	0.21715161
103	0x3df3b074	0.1189889
104	0xbd16e6d2	-0.03684122
105	0x3d8f3804	0.06993106
106	0xbc6cd682	-0.0144554395
107	0xbdeba566	-0.115061566
108	0x3b922aa5	0.00446065
109	0x3cc7a646	0.024371278
110	0xbcb173dc	-0.021661691
111	0x3b810b8e	0.003938145
112	0x3d4677d3	0.048454117
113	0xbc8c43fd	-0.017122263
114	0x3807f656	3.2415926e-05
115	0xbd179072	-0.03700299
116	0x3e29e72c	0.16592091
117	0x3d258d6c	0.040418074
118	0xbc9c2397	-0.01905994
119	0x3d8c50e7	0.068513684
120	0xbcbfa7f3	-0.023395514
121	0x3d93394e	0.071886644
122	0x3da83ea2	0.08215071
123	0x3c73ee82	0.014888408
124	0xbddc1a71	-0.10747231
125	0x3d8c1069	0.068390675
126	0xbe015347	-0.12629424
127	0x3c9432fc	0.018090717
128	0x3bf45914	0.007456908
129	0x3e02ee72	0.12786272
130	0x3dfa13dc	0.12210819
131	0x3dd5c1e8	0.10437375
132	0x3dc81ea2	0.09771468
133	0x3d4aa204	0.049470916
134	0xbd0ffe7e	-0.035154812
135	0x3b46f282	0.0030356948
136	0x3d93b247	0.07211738
137	0x3df974c1	0.12180472
138	0xbde85045	-0.11343435
139	0x3c405840	0.01173979
140	0x3d491dd5	0.049100716
141	0x3d305683	0.043051254
142	0xbc5c9635	-0.0134635465
143	0xbe0bc066	-0.13647613
144	0xbdcc335c	-0.099707335
145	0xbd6efc3c	-0.05834602
146	0x3daefb7d	0.08544061
147	0xbe9b949d	-0.3038682
148	0xbc3c55dd	-0.011495081
149	0x3df1a2ab	0.117986046
150	0x3ca3a766	0.019977283
151	0x3d04b7fd	0.032402027
152	0x3de66efe	0.11251639
153	0xbda7c9f0	-0.081928134
154	0x3b41457b	0.0029490876
155	0xbd843150	-0.06454718
156	0x3dac7753	0.08421197
157	0xbde96e35	-0.113979734
158	0xbc700665	-0.014649962
159	0xbe12fe83	-0.14354901
160	0xbe63b40a	-0.22236648
161	0xbd8727f3	-0.065994166
162	0xbcd274e3	-0.025690502
163	0x3d9ed84f	0.07756101
164	0xbba78894	-0.005112717
165	0xbc9e20b8	-0.01930271
166	0x3d33adc0	0.043866873
167	0x3d782805	0.06058504
168	0x3c335e3f	0.010947763
169	0x3e119577	0.14217173
170	0x3db4f450	0.088356614
171	0xbd918283	-0.07104971
172	0x3e03adf8	0.12859333
173	0xbddab510	-0.10679066
174	0x3d6dcb61	0.058055285
175	0xbcd552f2	-0.026040528
176	0xbdc73ec3	-0.09728768
177	0xbd465697	-0.048422422
178	0x3d12b94d	0.035821248
179	0xbe3abc39	-0.18235864
180	0x3d80c68c	0.0628787
181	0x3df4d4b9	0.11954636
182	0x3cf8d594	0.03037528
183	0x3a990473	0.00116743
184	0x3d547c9d	0.051876653
185	0xbcab22cc	-0.020890616
186	0xbdb5b00b	-0.08871468
187	0xbd73dfe0	-0.059539676
188	0x3d9b841b	0.075935565
189	0xbe091e53	-0.13390474
190	0xbcf550a7	-0.029945685
191	0xbdc00cab	-0.09377416
192	0xbe7322cd	-0.23743744
193	0xbc5759cd	-0.013143969
194	0x3d13dece	0.036101155
195	0xbd58cf08	-0.052931815
196	0x3c6cc4fe	0.0144512635
197	0x3acbbd46	0.0015544079
198	0xbdf5cc58	-0.12001866
199	0xbe4ac2ac	-0.19800824
200	0xbde8e81e	-0.11372398
201	0xbdbba3ed	-0.09162126
202	0xbe3e0422	-0.18556264
203	0xbe09cb1f	-0.13456391
204	0xbd7920b6	-0.06082221
205	0xbe16d37d	-0.14729114
206	0xbddba8e1	-0.107255705
207	0xbc20d9a9	-0.009817519
208	0xbda2a302	-0.079412475
209	0x3d402576	0.046910726
210	0xbd422eb7	-0.047407832
211	0x3d551d0c	0.052029654
212	0x3de91c98	0.11382407
213	0x3d743e22	0.059629567
214	0x3df26216	0.11835115
215	0xbcfc5a27	-0.030804707
216	0x3de6279f	0.11238026
217	0x3e2521b4	0.16126138
218	0x3da733ac	0.081641525
219	0x3d82389d	0.063584544
220	0x3daf6762	0.085646406
221	0x3e24cdd8	0.16094148
222	0xbdcd953d	-0.100382306
223	0x3d2fbc07	0.042903926
224	0xbd9ec98c	-0.07753286
225	0xbd742119	-0.059601877
226	0x3d210fad	0.03932159
227	0x3d9863e8	0.074409306
228	0xbd4932db	-0.049120765
229	0x3d7ed937	0.06221887
230	0x3d738a08	0.05945781
231	0x3d29b2e9	0.041430388
232	0xbd6c5f8b	-0.057708304
233	0x3e1f9edb	0.15587942
234	0xbde4a5bb	-0.11164423
235	0xbcdc69e8	-0.026905969
236	0xbce1a259	-0.027543234
237	0xbded0893	-0.11573901
238	0x3d23a8b6	0.039955817
239	0x3d09d4d6	0.03365024
240	0xbd8c1865	-0.068405904
241	0xbdc480b6	-0.09594862
242	0xbdb13635	-0.08652917
243	0x3dba66af	0.091016166
244	0x3dc17239	0.09445614
245	0x3e3b2114	0.18274337
246	0xbe292764	-0.16518933
247	0xbda02681	-0.07819844
248	0x3d11eaaf	0.035624202
249	0xbe2d1709	-0.16903318
250	0xbd455c64	-0.048183814
251	0x3d9278be	0.07151936
252	0x3ce0b4af	0.027429907
253	0xbdc10f7c	-0.094267815
254	0xbdd66bcb	-0.104697786
255	0x3e18cefe	0.14922711

CNN_feature_extractor.layer1.3.bias f4 [8]
0	0x3d8596e1	0.065229185
1	0xbd7d13e8	-0.061786562
2	0xbda2ed8a	-0.07955463
3	0xbdffcec6	-0.12490611
4	0xbceaa7e0	-0.028644502
5	0xbd4e0e09	-0.050306354
6	0x3d88215e	0.06646989
7	0x3d1a25d7	0.037633743

CNN_feature_extractor.layer2.0.weight f4 [32, 8, 5, 5]
0	0xbdd4b1f7	-0.103855066
1	0xbd8022f0	-0.06256664
2	0xbcd6c407	-0.02621652
3	0x3cb76b6f	0.022390096
4	0x3d106ffa	0.03526304
5	0xbdb31b05	-0.08745388
6	0x3d44c7e6	0.0480422
7	0x3d9d762d	0.07688556
8	0x3d4a9e07	0.049467113
9	0x3db5a1b0	0.0886873
10	0x3cf050ad	0.029335344
11	0x3d038165	0.032105822
12	0x3d26c9a7	0.040719654
13	0x3d2aff8f	0.041747626
14	0x3d22ae2d	0.03971689
15	0x3d134416	0.035953604
16	0x3da723a9	0.081610985
17	0xbc9638d6	-0.018337648
18	0xbd50359e	-0.050832383
19	0xbd5e2248	-0.054231912
20	0xbc540271	-0.012940035
21	0x3d3c80b4	0.04602118
22	0xbd4cff8b	-0.050048392
23	0xbd88c31f	-0.066778414
24	0x3cfcde45	0.030867705
25	0x3c347917	0.011015198
26	0x3d14d125	0.03633227
27	0x3c698c39	0.014254623
28	0xbd8d81d7	-0.069095306
29	0xbd112540	-0.035435915
30	0xbcc2b224	-0.023766585
31	0xbd83d6b7	-0.06437438
32	0xbcdd6911	-0.027027639
33	0xbc83ae42	-0.016074304
34	0x3c0b3efa	0.0084989015
35	0xbce98619	-0.028506326
36	0xb87c9dd6	-6.0228478e-05
37	0x3d692d19	0.056927774
38	0xbd7acb6f	-0.061229166
39	0xbd90e697	-0.070752315
40	0xbcb7bfc2	-0.022430304
41	0x3d90110d	0.07034502
42	0x3d818981	0.06325055
43	0xbdaa2d79	-0.083094545
44	0xbd199018	-0.037490934
45	0x3c8b6244	0.01701463
46	0xbc7dabd2	-0.01548286
47	0xbdba5283	-0.09097769
48	0xbdbfab32	-0.09358825
49	0x3d16ffb2	0.036864944
50	0x3bb18372	0.005417281
51	0xbd164aa0	-0.03669226
52	0x3dc86c76	0.09786312
53	0xbd842455	-0.06452242
54	0x3e0df37c	0.13862413
55	0xbdb61d60	-0.088923216
56	0x3d859352	0.0652224
57	0x3d82ab97	0.063803844
58	0x3d25520e	0.040361457
59	0x3d6ad421	0.05733121
60	0xbe098b5f	-0.13432072
61	0xbb87c5ba	-0.004143444
62	0x3df6f7a2	0.12058951
63	0x3e04a816	0.12954745
64	0x3dd73c63	0.10509565
65	0xbe26a99d	-0.1627564
66	0xbb006ffb	-0.0019597996
67	0x3e1752b8	0.14777648
68	0x3dfd0327	0.12354117
69	0x3ce4ff69	0.02795382
70	0xbdb78239	-0.08960385
71	0x3c180ac2	0.009279909
72	0x3dc48045	0.09594778
73	0x3db6c02c	0.089233726
74	0x3caadc0b	0.020856878
75	0xbc703a76	-0.014662376
76	0x3c478750	0.012178257
77	0xbd93bfc7	-0.07214313
78	0xbd601651	-0.054708783
79	0xbd26f44b	-0.04076032
80	0xbc8cd1b7	-0.017189844
81	0xbd9d8148	-0.07690674
82	0xbd3d88ab	-0.046272915
83	0x3d9c75ad	0.076396324
84	0x3d3c5fda	0.04598985
85	0xbe03010a	-0.12793365
86	0xbd8d9635	-0.06913415
87	0x3c77d01e	0.015125303
88	0x3d7154a2	0.058918603
89	0xbd0c32d4	-0.03422816
90	0xbdd12f32	-0.1021408
91	0xbde7beab	-0.11315664
92	0x3b357697	0.0027689093
93	0xbca3ed49	-0.020010607
94	0xbad8f158	-0.0016551418
95	0xbe20f032	-0.15716627
96	0xbd578a43	-0.05262209
97	0xbd50bb84	-0.05096008
98	0xbbf8f457	-0.007597487
99	0x3cdcd1c8	0.0269555
100	0x3d959864	0.07304457
101	0xbb7e9696	-0.003884708
102	0xbd434eac	-0.04768245
103	0x3d1b04c5	0.037846345
104	0x3adbe174	0.0016775564
105	0xbc2149f9	-0.009844297
106	0xbd8b8474	-0.06812373
107	0x3d76f6fc	0.060294136
108	0x3cebbc4d	0.028776312
109	0xbc8150c2	-0.015785579
110	0xbda7c479	-0.08191771
111	0xbd02dcb4	-0.03194876
112	0x3d6aaccf	0.05729371
113	0x3da3bd68	0.07995111
114	0x3d84469d	0.06458781
115	0xbd86f2a7	-0.06589251
116	0xbaf8d7e6	-0.0018985241
117	0x3c02beb7	0.00798004
118	0xbd5172f2	-0.05113501
119	0x3db5202f	0.08844029
120	0xbd65ba9e	-0.056086175
121	0x3d1ee2e8	0.038790613
122	0x3d70f242	0.058824785
123	0x3d5eb915	0.054375727
124	0x3d5d9e29	0.05410591
125	0x3dd290be	0.10281514
126	0x3db01c08	0.085990965
127	0xbd3064fd	-0.04306506
128	0x3d0d3598	0.03447494
129	0xbd4692d5	-0.048479874
130	0x3dc8494b	0.097796045
131	0x3d82138e	0.06351386
132	0x3c83da83	0.016095405
133	0xbcde4b92	-0.027135644
134	0x3c851eb6	0.016249996
135	0x3cd6cabc	0.026219718
136	0x3d866b04	0.0656338
137	0xbdbe727a	-0.092991784
138	0xbd3b21b1	-0.045686428
139	0xbd323cd1	-0.04351503
140	0xbd1766de	-0.036963336
141	0xbd7a468b	-0.06110243
142	0xbde3512f	-0.11099469
143	0xbd57c5d3	-0.052678894
144	0xbc95e1e0	-0.018296182
145	0xbdff94cd	-0.12479553
146	0xbe18cf82	-0.14922908
147	0xbe3770ba	-0.17914096
148	0xbd807918	-0.06273097
149	0xbd2f3d1d	-0.04278289
150	0xbce42e3f	-0.027854083
151	0xbca16e4d	-0.019705916
152	0xbca07aad	-0.019589746
153	0xbba7c646	-0.0051200716
154	0xbd070e46	-0.032972597
155	0x3c98c526	0.018648695
156	0x3d11c5c5	0.035589
157	0x3dc4aaf6	0.09602921
158	0x3d98250c	0.07428941
159	0x3d60adec	0.054853365
160	0xbc53f2d1	-0.01293631
161	0x3d77661c	0.060400113
162	0x3d95e6dd	0.07319424
163	0x3d8ce4dd	0.0687959
164	0xbd4b7bfd	-0.04967879
165	0x3d2aa3fd	0.041660298
166	0x3d8eef99	0.069792934
167	0xbc49c189	-0.012314209
168	0xbc599f66	-0.013282632
169	0x3d9aefe8	0.0756529
170	0x3d09577b	0.033530694
171	0x3d046e2e	0.032331638
172	0x3d51a3bd	0.051181544
173	0x3cbb2037	0.02284251
174	0x3b916713	0.004437336
175	0xbd3a1a99	-0.04543552
176	0x3c8cd214	0.017190017
177	0xbce93039	-0.028465377
178	0x3d25ad83	0.040448677
179	0xbd592cb9	-0.053021166
180	0xbd6555fc	-0.055990204
181	0xba980419	-0.0011597901
182	0x3caf36fb	0.021388521
183	0x3dd333a0	0.10312581
184	0xbd82a418	-0.06378955
185	0x3b3016b8	0.002686901
186	0xbd80e8f3	-0.062944315
187	0xbcca3719	-0.024684476
188	0xbd7f9083	-0.062393676
189	0xbd0d052b	-0.034428757
190	0xbd956cc1	-0.07296134
191	0xbdadbbf7	-0.08483117
192	0xbd4bf6fe	-0.049796097
193	0xbd4f9160	-0.05067575
194	0x3cb58fc4	0.02216328
195	0xbdb3b8dd	-0.08775494
196	0xbd5d2b55	-0.053996403
197	0xbcb18092	-0.021667752
198	0x3d69f0e4	0.057114497
199	0xbc9d3ab7	-0.019193036
200	0xbc367826	-0.011137044
201	0x3d9be5ad	0.076121666
202	0x3db56c43	0.0885854
203	0x3d8d14c1	0.06888724
204	0x3cbe4fbd	0.023231382
205	0xbd96ecba	-0.07369371
206	0x3ce5a14d	0.028031016
207	0xbd5cfdda	-0.05395303
208	0xbd872b2e	-0.06600033
209	0xbd0e93a2	-0.034808762
210	0xbde19f27	-0.11016684
211	0xbdbaca19	-0.09120578
212	0x3bdf2806	0.006810191
213	0xbc267f5a	-0.010162199
214	0xbe1f9633	-0.1558464
215	0x3d5a539f	0.053302404
216	0xbc3628bd	-0.011118111
217	0x3dbc3f25	0.09191731
218	0xbd4e5524	-0.050374165
219	0xbd1814f6	-0.037129365
220	0x3db4a2c9	0.08820111
221	0x3d9e6b00	0.077352524
222	0x3d141351	0.036151234
223	0x3d382874	0.044960454
224	0xbc9f95c4	-0.019480594
225	0x3d0e9b1b	0.03481589
226	0xbbf93dc1	-0.0076062386
227	0xbd7a267c	-0.061071858
228	0x3d7ad76c	0.0612406
229	0x3d4696ab	0.048483532
230	0xbcb60609	-0.022219675
231	0x3d6eee3b	0.058332663
232	0x3cfaa0fd	0.030594343
233	0xbdad23c2	-0.08454086
234	0x3d514839	0.051094268
235	0xbd6d26c4	-0.057898298
236	0xbd559a54	-0.052149132
237	0x3d1df035	0.038559157
238	0xbe214204	-0.15747839
239	0xbd7e3100	-0.06205845
240	0x3d0a3ac3	0.033747446
241	0x3bb8831e	0.0056308648
242	0x3cc76a3f	0.024342654
243	0xbd316318	-0.043307394
244	0xbdd8700a	-0.10568245
245	0x3d504a3b	0.05085204
246	0xbd707cd9	-0.058712814
247	0x3d8089be	0.06276272
248	0x3d4bde4a	0.04977254
249	0x3cd573f5	0.02605627
250	0xbd1b935a	-0.037982322
251	0x3d076d95	0.03306349
252	0x3d6a6704	0.05722715
253	0x3dc3aebf	0.095548145
254	0x3da16d86	0.07882218
255	0xbca6ff5a	-0.020385433

CNN_feature_extractor.layer2.0.bias f4 [32]
0	0xbd4720d1	-0.04861528
1	0xbcbe43fe	-0.02322578
2	0x3d3325fb	0.043737393
3	0xbe49cabb	-0.19706242
4	0xbdaaad1f	-0.083338015
5	0xbd59b72b	-0.0531532
6	0xbd45cf57	-0.048293438
7	0xbd959e59	-0.07305593
8	0xbb060fb0	-0.0020456128
9	0x3d050d96	0.03248366
10	0x3c26bc1b	0.010176684
11	0x3c4a9ed0	0.012366965
12	0xbe0b0232	-0.13575056
13	0xbc387d06	-0.011260277
14	0xbd0dadd3	-0.0345896
15	0xbdee30bd	-0.1163039
16	0xbcd0cea4	-0.025489159
17	0x3c26192e	0.010137839
18	0xbd8fabc2	-0.07015182
19	0x3d4b01d8	0.049562305
20	0xbd2bf00b	-0.04197697
21	0xbdb8cb01	-0.09023095
22	0x3cfa1ed4	0.030532278
23	0xbd337eb3	-0.043822
24	0xbd2f0d60	-0.042737365
25	0xbc61ae3c	-0.013774451
26	0xbe3456ad	-0.17611189
27	0x3ca736b2	0.020411823
28	0xbda5a3b5	-0.08087865
29	0xbd501958	-0.05080542
30	0xbd3812e5	-0.044939894
31	0xbcd36e4a	-0.025809426

CNN_feature_extractor.layer2.2.weight f4 [32, 32, 3, 3]
0	0xbdc911f3	-0.09817877
1	0xbd5ae37c	-0.053439602
2	0xbdade067	-0.08490067
3	0xbd940f4b	-0.072294794
4	0xbd1ded45	-0.038556356
5	0xbc892d63	-0.016745275
6	0xbca8b54b	-0.02059426
7	0xbd8accc2	-0.06777336
8	0xbd4ebd9c	-0.050473794
9	0xbe23f992	-0.16013172
10	0xbe00cdbf	-0.12578486
11	0xbd4f3ffa	-0.050598122
12	0xbde7d454	-0.11319795
13	0xbdd45d2c	-0.103693336
14	0xbe2804a8	-0.16408026
15	0xbdc8d439	-0.09806103
16	0xbdf288d9	-0.11842508
17	0xbdc82310	-0.09772313
18	0xbd5c45e2	-0.053777583
19	0x3c969f2a	0.018386442
20	0x3cd7d26a	0.02634545
21	0xbc5c6cd5	-0.013453682
22	0xbcad4068	-0.021148875
23	0x3bcea247	0.006305966
24	0x3d31b87f	0.04338884
25	0xbc6ef34e	-0.014584376
26	0x3d346d33	0.044049453
27	0x3d8599c3	0.06523468
28	0x3d177395	0.036975462
29	0xbcd1050e	-0.025515106
30	0xbace7e8c	-0.0015754267
31	0xbb39d507	-0.0028355734
32	0x3d451a53	0.048120808
33	0x3c0e261c	0.008676078
34	0x3d03a03a	0.032135226
35	0x3cbd2dd7	0.023093147
36	0xbce3a045	-0.027786383
37	0xbb6dfa48	-0.003631251
38	0xbba40b5c	-0.005006237
39	0x3d86095f	0.06544756
40	0x3d1fdc75	0.039028604
41	0x3cb71d49	0.022352831
42	0x3cc7cbc4	0.024389155
43	0x3bf991cd	0.0076162578
44	0xbd2b7350	-0.041858017
45	0x3d5ea47c	0.054356083
46	0x3dddece7	0.10836201
47	0x3d9e6a33	0.077351
48	0x3dd2599d	0.102709986
49	0x3dc8774e	0.097883806
50	0x3d8ab592	0.06772913
51	0x3df9781d	0.12181113
52	0x3d922ba7	0.07137232
53	0x3e08d34a	0.1336185
54	0x3d5abd6d	0.053403307
55	0x3cd1220d	0.025528932
56	0x3d55cc30	0.05219668
57	0x3d214135	0.039368827
58	0x3d878c71	0.06618584
59	0x3dafaa14	0.08577362
60	0xba2ec21e	-0.0006666499
61	0x3daff59d	0.08591769
62	0x3daead49	0.08529145
63	0x3d045c14	0.032314375
64	0x3cd8261a	0.026385356
65	0xbd72f037	-0.059311118
66	0x3d386dc7	0.045026567
67	0xbb544d0e	-0.003239456
68	0x3cb1bb25	0.021695683
69	0x3da7b8c7	0.0818954
70	0x3d6cdb02	0.05782605
71	0x3cb88ac5	0.022527108
72	0xbc68e266	-0.014214134
73	0xbd8dc38c	-0.06922063
74	0xbd85fa6d	-0.065419056
75	0xbdb963b7	-0.09052222
76	0xbda962fd	-0.08270834
77	0xbd46e9fd	-0.048562992
78	0xbd67b6b1	-0.056570712
79	0xbb22d3e1	-0.0024845528
80	0xbd0e7e9c	-0.034788713
81	0xbccad828	-0.024761274
82	0xbd5b06d1	-0.053473298
83	0xbcd5051c	-0.026003413
84	0x3cabdb83	0.020978695
85	0x3d548fdf	0.05189502
86	0xbd1e00c7	-0.03857496
87	0xbd49da1b	-0.049280267
88	0xbd125395	-0.03572424
89	0xbbd8bbe1	-0.006614194
90	0x3d4aaeb4	0.049483016
91	0x3d5e6ae2	0.05430115
92	0xbc7c6340	-0.015404522
93	0x3ca9a4dc	0.020708494
94	0x3d1005c8	0.035161763
95	0x3d2a3439	0.04155371
96	0xbd36d707	-0.04463866
97	0x3d59ee0f	0.053205546
98	0xbc91b71f	-0.017787514
99	0xbb5f2cf0	-0.0034053884
100	0xba1e5861	-0.0006040391
101	0x3cc8f04a	0.024528641
102	0xbdaaf1d2	-0.08346905
103	0xbd5abe66	-0.053404234
104	0x3cb784f2	0.02240226
105	0xbdd12134	-0.10211411
106	0xbd7416af	-0.059591945
107	0xbd49f6d0	-0.049307644
108	0x3d082821	0.033241395
109	0x3c2640c6	0.010147279
110	0xbd463971	-0.048394624
111	0x3d54950b	0.05189995
112	0xbc812610	-0.01576522
113	0x3b9e532f	0.0048316936
114	0xbce7e112	-0.028305564
115	0xbc554d2a	-0.013018886
116	0xbbaaf63f	-0.005217343
117	0xbd8e6e09	-0.06954581
118	0xbc7bc3df	-0.0153665235
119	0xbd9e8b9c	-0.07741472
120	0xbd2af9d0	-0.041742146
121	0xbdf68592	-0.12037195
122	0xbd9416e3	-0.07230928
123	0x3c214c47	0.009844846
124	0x3d29a471	0.04141659
125	0xbd7e11d2	-0.062028714
126	0xbbd37fec	-0.0064544585
127	0x3d957a46	0.072987124
128	0x3b8bc50e	0.004265434
129	0xbdae6492	-0.08515276
130	0xbd99be44	-0.075069934
131	0xbd9b4fb3	-0.07583561
132	0xbdee6003	-0.116394065
133	0xbdec6b5d	-0.115439154
134	0xbde50ea3	-0.11184432
135	0xbcce99a7	-0.025219752
136	0xbc49b98c	-0.012312304
137	0x3d2d3742	0.042289026
138	0x3d2e24cf	0.042515572
139	0x3d6eefd8	0.0583342
140	0x3cb32c81	0.021871807
141	0xbd45a479	-0.048252556
142	0x3a271d83	0.0006374942
143	0x3cffd185	0.031227836
144	0xbcc29997	-0.023754878
145	0xbd0e1d64	-0.034695998
146	0xbcfef278	-0.031121477
147	0xbd8b0211	-0.067875035
148	0x3c845218	0.016152427
149	0xbce7fe3d	-0.028319472
150	0x3c2d8e74	0.0105930455
151	0xbccd2776	-0.02504323
152	0x3d83c96d	0.06434903
153	0xbd4625fa	-0.04837606
154	0x3a1f7410	0.00060826633
155	0x3d3dc4b9	0.046330187
156	0x3caccd47	0.021093978
157	0xb929c7a5	-0.0001619147
158	0x3b0ec05a	0.002178213
159	0xbc39714d	-0.011318517
160	0xbb18a78b	-0.0023293223
161	0x3d4f9d30	0.050687015
162	0xbcb155ec	-0.021647416
163	0x3c2442fb	0.010025735
164	0x3cca6073	0.024704194
165	0xbc345f4b	-0.011009048
166	0x3cfe4901	0.03104067
167	0x3cb30e17	0.021857304
168	0x3cbe15b3	0.023203706
169	0x3c2587cc	0.010103177
170	0x3d3cb314	0.04606922
171	0xbd8e5aa1	-0.0695088
172	0xbda0ab56	-0.0784518
173	0x3b958cfe	0.0045639267
174	0xbc816d18	-0.01579909
175	0xbb593152	-0.003314097
176	0x3ca7dd37	0.020491226
177	0xbd3700b1	-0.044678394
178	0x3d338ce5	0.04383554
179	0xbcce5773	-0.025188183
180	0x3cd27197	0.02568893
181	0x3d222a90	0.039591372
182	0x3d23ae81	0.03996134
183	0x3ce44c05	0.02786828
184	0x3d7d8d51	0.061902348
185	0x3cfc668d	0.030810619
186	0xbc680c1c	-0.014163043
187	0xbd8259f3	-0.06364813
188	0xbd8c6f43	-0.06857159
189	0xbc889e60	-0.016677082
190	0xbbdfa0c6	-0.0068245856
191	0xbc44cbf3	-0.012011516
192	0x3b9faed6	0.004873137
193	0x3c8fcb34	0.01755295
194	0x3cd56c26	0.026052546
195	0xbb85f4f0	-0.0040880367
196	0x3d8e3aed	0.06944833
197	0x3d4f1cc2	0.050564535
198	0xbd81b687	-0.063336425
199	0xbb6845f0	-0.0035442077
200	0x37ca4db7	2.4116465e-05
201	0x3ce68b7c	0.028142683
202	0x3c04a96e	0.008097036
203	0x3d031158	0.031998962
204	0x3b54bcf4	0.0032461258
205	0x3d617110	0.055039465
206	0x3da37e7f	0.079831116
207	0xbe07026e	-0.1318452
208	0xbe139571	-0.14412476
209	0xbb20e7f3	-0.0024552315
210	0xbe369ae2	-0.1783252
211	0xbe162b0f	-0.14664863
212	0xbe10415b	-0.14087431
213	0xbe4d2427	-0.20033322
214	0xbe0ae50f	-0.13563941
215	0xbd89e737	-0.06733554
216	0x3c842f16	0.016135734
217	0x3d1d44ee	0.038395815
218	0xbc0b049c	-0.008484986
219	0x3c544939	0.012956911
220	0xbd1f7b60	-0.03893602
221	0xbaf50c60	-0.0018695705
222	0xbbf95a84	-0.0076096673
223	0xbc8cf7d6	-0.017208021
224	0xbcb23cac	-0.021757446
225	0xbc0e5c5d	-0.008689013
226	0xbd00ad66	-0.031415366
227	0x3d9b7513	0.075906895
228	0xbd1eee89	-0.038801704
229	0xbd5e1280	-0.05421686
230	0x3d733e57	0.059385624
231	0x3c6dcb50	0.0145138055
232	0xbd54d9fa	-0.05196569
233	0x3c987a41	0.018612983
234	0x3d1eb377	0.03874537
235	0xbcf94f6f	-0.030433385
236	0x3be0d98f	0.0068618725
237	0xbb24847f	-0.0025103388
238	0x3d901f7b	0.070372544
239	0x3dbb4fbc	0.091460675
240	0x3d652017	0.055938806
241	0xbca4efbc	-0.020133846
242	0x3cf8540c	0.030313514
243	0x3aa23fb4	0.0012378604
244	0x3c2ab29a	0.0104185585
245	0x3ccf89a2	0.025334183
246	0xbd23f083	-0.04002429
247	0x3d200720	0.039069295
248	0x3d129000	0.03578186
249	0xbdc30db4	-0.09524098
250	0x3c8478a0	0.0161708
251	0xbc6b47c5	-0.014360373
252	0xbbdc8fb8	-0.006731
253	0xbd03aa7e	-0.032145016
254	0xbc98b0a0	-0.018638909
255	0x3c2aa7d1	0.010415987

CNN_feature_extractor.layer2.2.bias f4 [32]
0	0x3c9aaa52	0.018880043
1	0x3d3066cb	0.04306678
2	0xbc437996	-0.011930844
3	0xbd2cf30e	-0.042223983
4	0xbc91fe41	-0.017821433
5	0x3cabf5fe	0.020991322
6	0xbab434b6	-0.0013748619
7	0x3d439e91	0.047758643
8	0x3cd00173	0.025391316
9	0x3cf48529	0.029848652
10	0xbdb6b33c	-0.08920905
11	0x3c4223b7	0.011849335
12	0xbd01eb59	-0.031718586
13	0xbcaf0593	-0.021364963
14	0xbd44ce7b	-0.048048478
15	0x3cdaf598	0.026728436
16	0xbd3a5bec	-0.04549782
17	0x3c8d40a9	0.017242746
18	0xbd82d6b3	-0.06388607
19	0xbd8234cd	-0.06357727
20	0x3ca1c834	0.019748785
21	0xbd821147	-0.06350952
22	0xbbc39566	-0.0059687374
23	0xbd4182fa	-0.04724405
24	0xbd9e7e9a	-0.07738991
25	0x3ceb11d3	0.028695023
26	0xbb2d976c	-0.002648796
27	0xbd6ae9c4	-0.057351843
28	0xbd9ce5a1	-0.07660986
29	0x3c946164	0.018112846
30	0xbd163abc	-0.036677107
31	0xbd2596f5	-0.040427167

CNN_feature_extractor.layer3.0.weight f4 [64, 32, 3, 3]
0	0x3d45f63d	0.048330534
1	0x3d119459	0.035541866
2	0x3d607f20	0.054808736
3	0x3d06c517	0.032902803
4	0x3cc715ea	0.024302442
5	0xbd28079d	-0.041022886
6	0x3d9da3b2	0.07697238
7	0x3cba7978	0.022762999
8	0x3d0a7a86	0.033808254
9	0x3d16fe99	0.036863897
10	0x3cace648	0.0211059
11	0xbd286880	-0.041115284
12	0x3d6a41ba	0.057191588
13	0x3d4cdacc	0.05001335
14	0xbd0450a7	-0.03230348
15	0x3c4ae8b3	0.012384581
16	0x3d140c1e	0.03614437
17	0xbd0ccc84	-0.03437473
18	0x3d375173	0.04475541
19	0x3d12884a	0.035774507
20	0x3d2d5a23	0.04232229
21	0x3d16569b	0.036703687
22	0xbc329278	-0.010899179
23	0xbd0982e2	-0.033572085
24	0xbcb95b75	-0.022626618
25	0xbc9a9f18	-0.01887469
26	0x3c5590ef	0.013035043
27	0xbdaf7ede	-0.0856912
28	0xbcd491db	-0.025948456
29	0xbc9ada26	-0.01890285
30	0xbe00a853	-0.1256421
31	0xbddb2ab8	-0.10701507
32	0xbd888a62	-0.066670194
33	0xbdd03382	-0.10166074
34	0xbd624d1a	-0.05524931
35	0xbd968f81	-0.0735159
36	0x3d363f15	0.044493753
37	0x3d6466c9	0.055762086
38	0x3c25fce2	0.010131093
39	0xbd5e489b	-0.05426846
40	0x3d2c26a8	0.042029053
41	0x3c6a6336	0.01430588
42	0xbd75885b	-0.05994449
43	0x3da1f7f2	0.0790862
44	0xbd0326c9	-0.03201941
45	0x3d64f784	0.05590011
46	0xbb9c4013	-0.0047683804
47	0xbcf8c9ff	-0.030369757
48	0x3b4ce77e	0.003126591
49	0x3d59b027	0.053146508
50	0x3beaefd1	0.0071697016
51	0x3d32a434	0.043613628
52	0x3be5b6c9	0.007010315
53	0xbd50d397	-0.050983038
54	0x3b4a1f8d	0.003084156
55	0x3acae7b1	0.0015480426
56	0xbd7e47cb	-0.062080186
57	0xbc36c3f1	-0.0111551145
58	0xbbae5e90	-0.0053213313
59	0xbcad1eeb	-0.021132907
60	0xbdd0d83e	-0.10197495
61	0xbcad724c	-0.021172665
62	0xbd91f018	-0.071258724
63	0x3c47fa50	0.012205675
64	0x3ce04f2e	0.027381506
65	0x3d7be541	0.06149793
66	0x3ce3a99b	0.027790835
67	0xbc43adb2	-0.011943268
68	0x3d2036b1	0.039114658
69	0x3ca7af3f	0.020469306
70	0xbd5904de	-0.052983157
71	0xbc268826	-0.010164296
72	0x3d03305a	0.032028534
73	0x3b587d4f	0.0033033674
74	0xbc216b06	-0.0098521765
75	0xbcb29919	-0.021801518
76	0xbd078d00	-0.033093452
77	0xbc269410	-0.010167137
78	0x3c866253	0.016404307
79	0xbca79430	-0.020456403
80	0x3d1717c4	0.0368879
81	0xbdbf13cd	-0.093299486
82	0x3c4a465d	0.0123458775
83	0xbd305947	-0.04305389
84	0xbde3a372	-0.11115159
85	0xbd978e8d	-0.07400236
86	0xbe02b064	-0.127626
87	0xbdb7e2ac	-0.08978781
88	0xbdbd3da2	-0.09240271
89	0xbd50f6fd	-0.051016796
90	0x3cd04e3b	0.025427928
91	0xbd902fe4	-0.070403844
92	0x3b26daec	0.0025460077
93	0x3d1ee677	0.038794007
94	0xbd5d4c02	-0.054027565
95	0xbbe0b77f	-0.006857812
96	0xbd25bd08	-0.040463477
97	0x3d8d53f6	0.0690078
98	0x3d1d9848	0.038475305
99	0xbdb4c27a	-0.08826156
100	0xbd0bb592	-0.034108706
101	0xbb176571	-0.0023101235
102	0xbde19684	-0.11015037
103	0xbdab791a	-0.08372708
104	0xbddda6bb	-0.10822817
105	0xbd7b6e12	-0.061384268
106	0xbd1dde2a	-0.03854195
107	0xbe0258fe	-0.1272926
108	0xbd734024	-0.05938734
109	0xbc2172c1	-0.00985402
110	0xbd6d6cf4	-0.057965234
111	0xbcae908e	-0.021309163
112	0xbd57fbcd	-0.05273037
113	0xbd4680a9	-0.048462544
114	0xbe0a12f3	-0.13483791
115	0xbd8b0574	-0.067881495
116	0xbe066d5d	-0.13127656
117	0x3ce60386	0.028077852
118	0xbae00863	-0.0017092343
119	0xbc899fc7	-0.01679982
120	0xbc34b0a3	-0.011028442
121	0x3c597cf2	0.013274418
122	0x3d50691e	0.050881498
123	0x3d49ff40	0.04931569
124	0x3d88ef9c	0.06686327
125	0x3dbc769c	0.092023104
126	0xbcfe0cec	-0.031012021
127	0x3d2bd252	0.041948624
128	0x3da47108	0.080293715
129	0x3d86a7cf	0.06574976
130	0xbd2f1583	-0.042745125
131	0xbca692ed	-0.020333732
132	0xbd551d05	-0.05202963
133	0xbc94da7b	-0.018170586
134	0xbd270940	-0.040780306
135	0x3cf84334	0.030305482
136	0xbcea34e9	-0.028589683
137	0xbc924048	-0.017852917
138	0xbd4a6756	-0.049414955
139	0xbd130af5	-0.03589912
140	0x3c090a10	0.0083642155
141	0xbd4e3c99	-0.05035076
142	0xbcc3056e	-0.0238063
143	0x3d3eea08	0.04660991
144	0x3cdde2f3	0.027085757
145	0xbd0816df	-0.033224937
146	0x3c6e9b1f	0.014563351
147	0x3ca11de6	0.019667577
148	0x3d98fdde	0.07470296
149	0x3b6f78cc	0.0036540506
150	0x3b988f3e	0.0046557477
151	0x3d22f7da	0.03978715
152	0xbc76ecb0	-0.015071079
153	0xbc816a55	-0.015797773
154	0xbd4e298d	-0.050332595
155	0xbd0a1bd0	-0.03371793
156	0xbc2b5bd5	-0.010458906
157	0x3d17028c	0.036867663
158	0x3c9f3938	0.019436464
159	0x3d468fac	0.04847686
160	0x3c9fac9c	0.019491486
161	0x3d4e1179	0.050309632
162	0x3d5a14db	0.053242546
163	0x3cfa2a52	0.030537758
164	0x3d1fa8e6	0.038979433
165	0x3cc881e7	0.024476005
166	0xbcd03d2b	-0.025419792
167	0x3d05b155	0.03263982
168	0xbd2a62a0	-0.041597962
169	0xbd43297e	-0.047646992
170	0xbd9d48f5	-0.07679931
171	0xbd46ffa1	-0.04858363
172	0xbc356a38	-0.011072688
173	0xbc9d7d14	-0.019224681
174	0xbd145621	-0.03621495
175	0x3d04298d	0.03226619
176	0x3c766559	0.015038812
177	0x3c888d6b	0.016668996
178	0x3d94e214	0.072696835
179	0x3d18cabe	0.037302725
180	0xb9b513ee	-0.0003453786
181	0x3cb7c653	0.022433436
182	0x3cbdca4d	0.023167754
183	0xbcbdb621	-0.023158135
184	0xbbf25c9d	-0.0073962943
185	0x3cd08f66	0.025459003
186	0xbad3c3cd	-0.0016156376
187	0x3d5af4dd	0.053456176
188	0xbca1d360	-0.019754112
189	0xbd0b1f91	-0.03396565
190	0xbca84b9c	-0.020543866
191	0x3d745667	0.059652712
192	0xbcb704d1	-0.022341164
193	0x3c69b1f3	0.014263618
194	0x3d5c0fda	0.053726055
195	0xbdf6ed89	-0.12057025
196	0x3ce035f8	0.027369484
197	0x3d37210a	0.044709243
198	0x3d1ff2c1	0.039049868
199	0xbbfb54f9	-0.0076700416
200	0x3c77118d	0.015079868
201	0xbc9dbf3d	-0.019256229
202	0xb99b0d16	-0.00029573654
203	0xb9c59d01	-0.00037691745
204	0x3d9cccd6	0.07656257
205	0xbca3303b	-0.019920459
206	0x3d9e5db7	0.077327184
207	0x3d03fcce	0.032223515
208	0x3d4f6eec	0.050642893
209	0x3c02bf2f	0.007980152
210	0xbd65bd7e	-0.056088917
211	0xbd3eeaf1	-0.046610776
212	0xbc32ea1e	-0.010920076
213	0xbcc6a035	-0.024246315
214	0xbdb331ef	-0.087497585
215	0xbd9c58db	-0.07634135
216	0x3c54db6c	0.012991767
217	0x3c3c2275	0.011482825
218	0x3d859484	0.06522468
219	0x3da1f1b1	0.07907427
220	0x3cfe862e	0.031069841
221	0xbc945247	-0.01810564
222	0x3dba508d	0.09097395
223	0x3dc63d74	0.0967969
224	0x3dc95522	0.09830691
225	0x3c52793b	0.012846286
226	0x3d316d27	0.043316986
227	0xbc852179	-0.016251313
228	0xbd011fc3	-0.03152443
229	0xbc9ec275	-0.019379834
230	0x3bdc4776	0.006722386
231	0x3c8bbd79	0.017058121
232	0xbcab2c8c	-0.020895265
233	0x3d0fbbef	0.035091337
234	0xbc73afd1	-0.014873461
235	0xbd7c6a26	-0.06162467
236	0xb9eb5669	-0.00044887073
237	0xbd28edc2	-0.04124237
238	0xbd231a00	-0.039819717
239	0x3c0684d4	0.00821038
240	0x3dd3f12e	0.10348736
241	0xbbbc82ac	-0.005752882
242	0x3d5686e5	0.05237474
243	0xbd278511	-0.040898386
244	0xbbac16ba	-0.0052517327
245	0x3c522fd8	0.01282879
246	0x3cd5092c	0.02600535
247	0xbd41e1c6	-0.047334455
248	0x3d86a8f8	0.06575197
249	0xbd1f285e	-0.038856857
250	0xbc2af2eb	-0.010433893
251	0x3d5d8ba3	0.054088246
252	0xbd0b232f	-0.0339691
253	0xbc8e1f56	-0.017348927
254	0xbc1a323d	-0.009411392
255	0x3b544e39	0.0032395257

CNN_feature_extractor.layer3.0.bias f4 [64]
0	0x3ce2b7df	0.027675567
1	0x3d3dfe34	0.046385005
2	0xbd63ffef	-0.055664
3	0xbd1b05ac	-0.037847206
4	0x3c51661b	0.0127806915
5	0xbcbb12cb	-0.02283611
6	0xbc5d0e0e	-0.01349212
7	0xbcde5d18	-0.027144
8	0x3d429a1e	0.04751026
9	0xbd1f1197	-0.038835134
10	0x3cec9be1	0.028882923
11	0xbd82a0a7	-0.06378298
12	0x3cdde0ba	0.027084697
13	0xbc2621ed	-0.0101399245
14	0xbca9418a	-0.020661134
15	0x3bb92478	0.0056500994
16	0x3d3c8a4f	0.04603034
17	0x3b8fcf1d	0.0043887035
18	0xbc991fe2	-0.01869196
19	0xbc9e177f	-0.019298313
20	0x3d29b365	0.04143085
21	0xbc724166	-0.0147861
22	0xbd098f9b	-0.03358422
23	0x3d013971	0.03154892
24	0x3d0ff353	0.03514416
25	0x3d01eeeb	0.03172199
26	0xbd0c3144	-0.03422667
27	0x3cbf013d	0.02331602
28	0x3d5e7d93	0.054318976
29	0xbd725963	-0.059167277
30	0xbb4f0b72	-0.0031592515
31	0xbd08cd76	-0.033399068
32	0xbd73f6fb	-0.05956171
33	0xbd8c0152	-0.06836189
34	0xbce5bf69	-0.028045373
35	0xbd905dbc	-0.070491284
36	0x3c7fba23	0.015608343
37	0xbd39c95a	-0.04535804
38	0xbd3c096f	-0.045907434
39	0xbd46233d	-0.04837345
40	0xbc1fa5d6	-0.009744128
41	0x3d01ab1a	0.031657316
42	0xbce0c440	-0.02743733
43	0x3cacd07d	0.021095509
44	0x3d349bc8	0.044093877
45	0xbc5070b4	-0.012722183
46	0xbd645216	-0.055742346
47	0xbbffd2e0	-0.0078071207
48	0xbcd7b9fb	-0.0263338
49	0x394121ae	0.00018418461
50	0xbc3cf184	-0.011532191
51	0x3b284011	0.0025672952
52	0x3d1b869e	0.037970178
53	0x3d047d0e	0.032345824
54	0xbd292feb	-0.041305464
55	0x3d09c2d2	0.03363306
56	0x3d3e2932	0.046426006
57	0x3ca957bf	0.020671723
58	0x3d644a5c	0.055734977
59	0x3cefa7c0	0.029254794
60	0xbdb87bf8	-0.0900802
61	0x3c836e53	0.016043818
62	0xbd31dfc5	-0.043426294
63	0xbdb55b55	-0.08855311

CNN_feature_extractor.layer3.2.weight f4 [64, 64, 3, 3]
0	0x3d6b0e8c	0.05738692
1	0x3d32af81	0.043624405
2	0x3bee6eaf	0.007276378
3	0x3d0e0828	0.034675747
4	0xbca9bcb5	-0.020719865
5	0xbc74034d	-0.014893365
6	0x3c4e58b5	0.012594392
7	0x3ce2f191	0.027703078
8	0xbd23f62d	-0.040029693
9	0xbd6ee2ba	-0.058321692
10	0xbd9a7720	-0.075422525
11	0x3badfb78	0.0053095184
12	0x3c09bad8	0.008406363
13	0xbce64cb8	-0.028112754
14	0xbafce050	-0.0019292925
15	0x3b2ee87b	0.0026688862
16	0xbccd340c	-0.025049232
17	0x3d04b217	0.032396402
18	0xbb871058	-0.0041218214
19	0xbd39077a	-0.045173146
20	0x3cd8aa9c	0.02644854
21	0xbbd009f5	-0.006348843
22	0xbb41d49d	-0.002957619
23	0xbd007368	-0.03136006
24	0x3c973068	0.0184557
25	0x3c1d2c84	0.009593133
26	0xbbefab71	-0.0073141386
27	0xbca8047e	-0.020509955
28	0x3d2f759e	0.042836778
29	0x3c38e831	0.0112858275
30	0x3c0c2391	0.008553402
31	0x3b81724f	0.003950394
32	0xbc1fe17a	-0.009758348
33	0x3cc87b5a	0.024472881
34	0xbcd47a41	-0.025937201
35	0xbd1c6154	-0.038178757
36	0xbae2535f	-0.0017267278
37	0x3c6b624f	0.0143667
38	0x3c5fd5da	0.013661826
39	0xbcfcc689	-0.030856388
40	0xbd2983d2	-0.04138548
41	0xbcce7576	-0.025202494
42	0xbce1212f	-0.027481643
43	0xbcf51f2d	-0.029922092
44	0x3c3b0d6b	0.011416773
45	0x3d152c41	0.036419157
46	0xbbf53ddf	-0.0074841822
47	0x3cd13249	0.025536673
48	0xbcb471f4	-0.022026993
49	0xbd5d3ad7	-0.054011192
50	0xbd004ff7	-0.03132626
51	0xbd1b2c01	-0.037883762
52	0xbce19034	-0.027534582
53	0x3c83a9da	0.016072202
54	0xbca3c41a	-0.01999097
55	0x3d666524	0.0562488
56	0xbc4bb07d	-0.012432215
57	0xbcd27286	-0.025689375
58	0xbcf2c427	-0.029634548
59	0xbb415eff	-0.0029506085
60	0xbb7ce18d	-0.0038586587
61	0xbd8e8531	-0.06958998
62	0xbd9e584c	-0.07731685
63	0x3d0f56f0	0.03499502
64	0xba547481	-0.00081045186
65	0xbcef542a	-0.029214937
66	0x3b079ca6	0.0020692735
67	0xbc854bb2	-0.016271446
68	0xbceb39d1	-0.028714092
69	0xbce0e3f5	-0.027452448
70	0xbd7a462a	-0.06110207
71	0xbcc30d63	-0.023810094
72	0x3d4a2a8d	0.049356986
73	0x3d17d3c5	0.037067194
74	0x3d3ad3be	0.04561209
75	0x3d42a0db	0.047516685
76	0x3d14a4de	0.036290042
77	0x3c286dc7	0.010280079
78	0xbbbfc8a7	-0.005852777
79	0xbaf8a0d7	-0.0018968832
80	0xbc1ff874	-0.009763826
81	0x3bf84f8f	0.0075778435
82	0x3d7508a4	0.059822693
83	0x3c7cd637	0.015431932
84	0xbd29a163	-0.041413676
85	0xbc0d1521	-0.008610995
86	0xbc041dc5	-0.008063738
87	0xbd785fe1	-0.060638312
88	0x3b68d4e1	0.0035527276
89	0x3d0678e4	0.032830134
90	0x3caa7e46	0.020812165
91	0x3d040d01	0.032238964
92	0xbbc8164a	-0.0061061727
93	0xbb3dc6c9	-0.0028957597
94	0x3cd315a7	0.02576716
95	0x3b7758cd	0.0037742138
96	0xbc456b72	-0.012049543
97	0xbcc475cc	-0.023981951
98	0xbca4914b	-0.020088812
99	0xbb1c5bfa	-0.0023858533
100	0xbbfdbdad	-0.0077435584
101	0xbb8a2fa8	-0.004217107
102	0x3d15fe91	0.036619727
103	0x3cf5c2a8	0.030000046
104	0x3cac888e	0.021061208
105	0xbc060f00	-0.008182287
106	0x3d106395	0.03525122
107	0xbd1d1868	-0.038353354
108	0x3d3ed119	0.04658613
109	0xbd0ab8c6	-0.03386762
110	0x3c0e234c	0.008675408
111	0x3d2749d0	0.040841877
112	0x3c55ba63	0.013044926
113	0xbcdc195b	-0.02686756
114	0xbc8ad70f	-0.016948251
115	0x3d70f8c3	0.058830988
116	0x3d0271bb	0.031846743
117	0xbcd2ed1b	-0.025747826
118	0xbc6d9a40	-0.014502108
119	0x3b8eb06d	0.0043545277
120	0x3c25fa95	0.010130544
121	0xbbbbc438	-0.005730178
122	0xbd17aa71	-0.03702778
123	0xbe207ce7	-0.15672646
124	0xbde66cd0	-0.11251223
125	0xbdfb1d79	-0.12261481
126	0x3cb48f56	0.022041004
127	0x3d22903f	0.039688345
128	0xbcde2688	-0.027117983
129	0xbd1fd2be	-0.03901934
130	0xbb35a41c	-0.0027716225
131	0xbd0ff7e1	-0.035148505
132	0xbd27ed33	-0.040997695
133	0x3bdbc486	0.006706777
134	0x3bd68920	0.0065471083
135	0x3c0a344b	0.008435319
136	0x3ca05a4f	0.019574312
137	0xbb5920fb	-0.003313123
138	0xbc6d5486	-0.014485484
139	0xbb835cc2	-0.0040088603
140	0xbccdf32b	-0.025140366
141	0xbd364539	-0.04449961
142	0xbd41f95c	-0.04735695
143	0xbcd1a658	-0.025592014
144	0xbcec2dce	-0.028830435
145	0xbd101b93	-0.035182547
146	0xb9512dda	-0.00019948874
147	0xbb8cccab	-0.0042968593
148	0x3d1553c3	0.036456835
149	0x3d19b21b	0.03752337
150	0x3ccffd91	0.025389465
151	0x3c8f03c2	0.017457847
152	0x3c964c85	0.018347034
153	0xbc2b9103	-0.010471585
154	0xbd14ebcf	-0.036357697
155	0xbddfd82b	-0.10929903
156	0xbdc92a6b	-0.09822544
157	0xbd8f19c3	-0.069873355
158	0xbc24cde5	-0.010058855
159	0xbd2e98af	-0.04262608
160	0xbd9728eb	-0.07380851
161	0xbcc33c18	-0.023832366
162	0xbc958416	-0.01825146
163	0xbd10a893	-0.035317015
164	0xbb66ffc4	-0.0035247663
165	0xbd0a39a4	-0.033746377
166	0x3c3b2b04	0.01142383
167	0x3d104fbf	0.0352323
168	0xbcbe794a	-0.023251195
169	0xbd0a0072	-0.03369183
170	0xbc5e32df	-0.013561933
171	0x3cf1989b	0.029491713
172	0x3b5b86e3	0.0033497147
173	0xbc4d7247	-0.012539453
174	0x3b5dee69	0.0033864027
175	0x3d6300d6	0.05542072
176	0x3d2c0d58	0.042004913
177	0x3c992b51	0.018697413
178	0xbcf6ad2b	-0.03011187
179	0x3bb51ca7	0.0055270973
180	0x3d317be9	0.04333106
181	0xbc169178	-0.009189956
182	0xbc8f00f0	-0.017456502
183	0xbd006d48	-0.03135422
184	0xbb22b971	-0.002482977
185	0xbcccc8ae	-0.024998035
186	0x3c3ac881	0.011400343
187	0xbc8d25c2	-0.017229918
188	0x3c809299	0.015694903
189	0x3d849710	0.064741254
190	0xbca6b4f9	-0.020349966
191	0x3c8334e1	0.016016426
192	0x3d6ddc0a	0.058071174
193	0x3d2b28fc	0.041787133
194	0x3d7a8381	0.06116057
195	0x3d28ddcc	0.041227147
196	0x3c6f614a	0.014610598
197	0x3d3a7f0b	0.045531314
198	0x3d0727da	0.03299699
199	0x3d252a24	0.04032339
200	0x3d077eaf	0.0330798
201	0xbc8b4567	-0.017000867
202	0x3d2916ab	0.041281383
203	0x3c8c6926	0.017139982
204	0xbc44d82f	-0.012014433
205	0x3b148288	0.002266081
206	0xbcee62fd	-0.029099936
207	0x3c0d1df5	0.008613099
208	0x3ccf808c	0.02532985
209	0xbc050cb3	-0.0081207035
210	0xbcd889e4	-0.026432939
211	0x3d2102c4	0.039309278
212	0x3d0762fa	0.033053376
213	0x3c2017e4	0.009771321
214	0xbcbb3314	-0.022851504
215	0xbcf65c25	-0.030073235
216	0xbace9b97	-0.0015762922
217	0xbc8c2082	-0.017105345
218	0xbd357b82	-0.04430724
219	0x3c8003dc	0.01562684
220	0xbc55eccd	-0.013056946
221	0xbc21bb61	-0.009871335
222	0xbc7e1607	-0.015508181
223	0xbd41b5e7	-0.047292616
224	0x3b7b42c9	0.0038339368
225	0x3b83649b	0.004009796
226	0x3b80f09b	0.0039349324
227	0xbc07d5ce	-0.008290721
228	0x3ca5ed05	0.020254621
229	0x3c100f6d	0.00879274
230	0x3ca80372	0.020509455
231	0xbc1685c9	-0.00918717
232	0x3c8e2c3b	0.017355075
233	0xbd21ba72	-0.03948445
234	0xbc12d3bd	-0.008961615
235	0xbd8f198a	-0.06987293
236	0xbe17fdb0	-0.14842868
237	0x3d244ad5	0.040110428
238	0xbd9c4701	-0.076307304
239	0xbdeddb3f	-0.116140835
240	0xbd43c186	-0.04779198
241	0xbe0684e9	-0.13136639
242	0xbd356beb	-0.04429237
243	0xbcafdbd8	-0.021467134
244	0x3b9ff8b2	0.0048819417
245	0xbd0e3766	-0.0347208
246	0x3bffe6e5	0.007809507
247	0x3b21dc94	0.0024698125
248	0xbd14d32c	-0.0363342
249	0xbced4434	-0.028963186
250	0x3ce9fc02	0.02856255
251	0xbd0b287d	-0.03397416
252	0x3ca1053d	0.019655818
253	0x3d59cb1a	0.05317221
254	0x3c672766	0.014108514
255	0xbb9473f4	-0.0045304243

CNN_feature_extractor.layer3.2.bias f4 [64]
0	0x3d046ed9	0.032332275
1	0x3cc37e42	0.023863915
2	0xbd2b1e2d	-0.041776825
3	0x3c32fd8e	0.01092471
4	0xbc25090c	-0.010072958
5	0xbcc15355	-0.023599306
6	0xbd325c69	-0.04354516
7	0x3be368de	0.0069399914
8	0xbca7de4d	-0.020491743
9	0x3bbc94f3	0.005755061
10	0x3c69e68a	0.014276156
11	0x3c916c5b	0.017751863
12	0x3ce2177f	0.027599094
13	0x3c5714a5	0.013127481
14	0xbcd51f7e	-0.026015993
15	0x3c319d25	0.010840689
16	0x3cc9e999	0.02464752
17	0x3cf73d91	0.030180724
18	0x3d1d8378	0.038455456
19	0x3d4c065e	0.04981076
20	0x3ca4c8b9	0.020115243
21	0x3b2f3b3f	0.0026738194
22	0x3ce80718	0.028323695
23	0xbc821cd3	-0.015882885
24	0x3c8eb49a	0.017420102
25	0x3bc03944	0.0058662016
26	0xbd2d1695	-0.042257864
27	0xbcb6eeaf	-0.02233061
28	0x3cb6a9b1	0.022297712
29	0xbc25c1ce	-0.010117007
30	0xbc9cc4cf	-0.019136814
31	0x3b0cd532	0.002148938
32	0x3c8ca229	0.017167168
33	0x3d4c0dc9	0.049817834
34	0xbd41bd05	-0.047299404
35	0x3bfc4e9a	0.0076997997
36	0xbb2d8e2b	-0.0026482444
37	0x3bdfe53c	0.006832747
38	0x3d7e257b	0.062047463
39	0x3d848a5c	0.064717025
40	0x3c4be945	0.0124457525
41	0x3c72104d	0.014774394
42	0xbca11e83	-0.01966787
43	0x3b9d63e7	0.004803169
44	0x3b8ed0f1	0.004358404
45	0x3c2c480c	0.010515224
46	0x3d544115	0.05181988
47	0xbc27b61b	-0.010236288
48	0x3c503269	0.012707331
49	0x3d0ea025	0.034820694
50	0xbb88e113	-0.0041772216
51	0x3c09a9b8	0.0084022805
52	0x3d2bb75e	0.04192292
53	0x3caf880e	0.02142718
54	0xbaae45a7	-0.0013295905
55	0x3cc46938	0.023975953
56	0x3d1e6c82	0.0386777
57	0x3d39207e	0.045197003
58	0xbd0d3084	-0.034470096
59	0xbb3ce102	-0.0028820639
60	0xbd08b6c5	-0.033377428
61	0x3ceb6337	0.028733833
62	0x3d85bd22	0.06530215
63	0x3d8c9a0a	0.06865318
