HW3/RNN.pth (torch, 442420 bytes, 30 tensors)

CNN_feature_extractor.layer1.0.weight f4 [8, 1, 5, 5]
00000000: 35d9 45be 3438 023d 4f08 943d 0e42 19be
00000010: 7ee9 1d3c 9aaf 3abe 49c7 49bd 2f08 5cbe
00000020: f8df 073e 80cb 0abe e30c 76bd f06e 793d
00000030: a304 34bd 6330 353d ed60 b4bc 6e99 3fbe
00000040: b7d9 70bc 1d20 0d3d 7331 29bc de5b 133e
00000050: ddc5 56be 8444 3bbe 2a88 59be 2504 453e
00000060: 75fa 6f3d 8fe3 223e 9bae 1e3e 9bbe 843e
00000070: 6976 8a3d 8958 8bbc 9842 0ebe 316b c63c
00000080: f1ae 89bc b1df 89bd d5ae 2c3e 0c73 b9bd
00000090: 0ce7 f1bd a919 b4bd d950 873d ccdc 003e
000000a0: 9807 debd b15c 403d 8365 3fbb ec23 52be
000000b0: 4494 d8bd 52ff d03d 7458 53bd 6519 423d
000000c0: dcd6 003d dabe 14be f3d5 4d3e cc56 50bd
000000d0: 33fd bebd 1521 263e 19a2 843c 20bd 33be
000000e0: 03af a23d 60b9 adbd 902a d1bd 4d4f efbd
000000f0: 7793 13be 64be 1fbe 6862 27be 011b c83c
00000100: 2a5d 8fbd 6b22 6abd 7739 10be 0b3c 113e
00000110: 9f3a 7a3e 0fe1 c93d 87ba 243e a442 5d3e
00000120: e951 0d3e 564a 12bd 1853 05be 25f2 423d
00000130: d410 523e 6927 143e f9a7 9f3d 9ddb 8a3e
00000140: 3431 d0bd 1c2f e5bd 7bb3 0f3e 9c17 1abe
00000150: bb43 cd3d 281a 4cbe c465 97bd 56aa e0bd
00000160: 740e 4f3d 2bbb 8fbd 7b80 b53b 73b4 50be
00000170: 435e 043e 0220 49be 5d68 e0bd bb86 943b
00000180: 04ab 1fbe e8e8 233e cd83 5abd f5d1 cfbd
00000190: 6edc 8a3d 82fd f23d 515f adbd 6938 0c3e
000001a0: a9f6 1bbe 9011 c33c 9bfb 88be cdc8 b1bd
000001b0: 0bc5 473e 17f7 3c3e c90c 7e3d d84f 5bbe
000001c0: 172d 0dbe d41b b33d c0f3 a73d 1ce4 393e
000001d0: 12a0 2e3e 52c7 fabd d60c ee3d 37d9 e0bb
000001e0: 50b9 993d eed1 57be feb8 7dbe 6577 ce3d
000001f0: 3db8 f8bd df20 00be f1f9 883c a683 08be
00000200: d458 2abe f6de 973d adb5 dc3d c020 bebd
00000210: 64a0 b6bd c22d 57bd e454 6dbd 482d e83d
00000220: b025 34be 2bfd f9bd 1bd7 43be 6200 0fbd
00000230: 26b8 7d3e ea6d afbd 4fb5 2b3e 5e55 0ebc
00000240: 9d13 22be 3c52 2d3d 7d2d 56bc 9160 553e
00000250: 4444 fabd a537 dabd f07f 17be 15cb 2abe
00000260: 4c8b 59be 6f79 90bd e608 39be 3447 763d
00000270: ca14 2abe 35da 4d3c cd2d 4f3b 9d43 04be
00000280: 42fd 1ebe 4ce6 983d 960d 843c 9c57 f43d
00000290: 84aa adbd 6cb4 49be ffe7 a2bd 5fae 46be
000002a0: a2c0 32be fecc 323d 11a1 37be 2a77 3ebe
000002b0: 4039 b13d f5bd 073b 331f ed3d ed9a 73bc
000002c0: 187b 56bd d822 fd3c 0017 65bc dd78 3b3d
000002d0: 80b2 95bd 191d 18be ff5a 0c3d eb4d 903d
000002e0: 3b31 62be 687a 44be 3eeb 5dbe 099a 65be
000002f0: 21aa 5dbe cd76 b43c 9155 053e 1a6f 30be
00000300: 877f 36be 80be d13d 7666 c3bd a64c 023e
00000310: fe14 5a3e f6d7 2f3e ea3a 8abd bdda 8abd
-0.19321139 0.03179188 0.07228147 -0.14966604 0.009638188 -0.18231049 -0.04926232 -0.21487497
0.13269031 -0.13554192 -0.060070883 0.060896814 -0.043949734 0.0442356 -0.022018874 -0.18710873
-0.014700345 0.034454454 -0.010326731 0.14390513 -0.20973916 -0.18287855 -0.21243349 0.19239862
0.058588464 0.15907119 0.15496294 0.2592667 0.06760866 -0.01700999 -0.13892591 0.024221035
-0.016807051 -0.06732119 0.16863568 -0.090551466 -0.11811647 -0.08793957 0.06607217 0.12584227
-0.10841292 0.046963397 -0.0029204793 -0.20521516 -0.105751544 0.102049485 -0.051598027 0.0473875
0.031454906 -0.14525929 0.20101146 -0.050864026 -0.09325638 0.16223557 0.016190575 -0.17552614
0.07943537 -0.08482623 -0.10213196 -0.11685047 -0.14411722 -0.15599972 -0.16346133 0.024426939
-0.070001915 -0.05716173 -0.14084421 0.14183061 0.24436425 0.0985738 0.1608678 0.21607453
0.13800777 -0.035715424 -0.13019979 0.04759421 0.20514232 0.14468159 0.0779571 0.27120677
-0.10165635 -0.11190626 0.1403331 -0.15048069 0.10022684 -0.19931853 -0.07392457 -0.10969989
0.050550893 -0.07018121 0.0055389977 -0.20381336 0.12926583 -0.19641116 -0.10957406 0.0045326627
-0.15592581 0.16006815 -0.05334835 -0.10147468 0.06780325 0.11864759 -0.08465446 0.13693394
-0.15230812 0.023812085 -0.2675446 -0.08680878 0.1950876 0.18453632 0.06202391 -0.21417177
-0.13786732 0.08745542 0.082007885 0.18153423 0.1705325 -0.122450486 0.11623542 -0.0068618315
0.07506049 -0.21076176 -0.247776 0.100813664 -0.12144516 -0.1251254 0.016720744 -0.1333147
-0.16635448 0.07415573 0.107768394 -0.0928359 -0.08917311 -0.052533872 -0.057942286 0.11336762
-0.17592502 -0.12206491 -0.19125025 -0.034912474 0.24777278 -0.08565886 0.16768382 -0.008687345
-0.15827794 0.042314753 -0.013072369 0.20837618 -0.12220052 -0.106551446 -0.14794898 -0.16679032
-0.21244544 -0.070544116 -0.180698 0.0601265 -0.16609493 0.012564232 0.0031612993 -0.12916417
-0.15526298 0.07465801 0.01611976 0.11930773 -0.08479789 -0.19697732 -0.07954406 -0.19402455
-0.17456296 0.043652527 -0.17932536 -0.18600145 0.08653498 0.0020712588 0.115782164 -0.01486848
-0.052363485 0.030900404 -0.013982534 0.04576956 -0.07309437 -0.1485485 0.03426647 0.07046112
-0.22089092 -0.1918732 -0.21671769 -0.22422041 -0.2164693 0.022029305 0.13020922 -0.17229882
-0.17822085 0.10241413 -0.09541027 0.12724552 0.2129707 0.17172226 -0.06749518 -0.06780002

CNN_feature_extractor.layer1.0.bias f4 [8]
00000000: d8a5 08be 49e7 033e 9c12 b2bd 3177 08bd
00000010: 59ec 673d 6fc5 afbd 30ba 6f3d 122b d03d
-0.13344514 0.12881197 -0.08694956 -0.033316795 0.056621883 -0.08582579 0.05852717 0.10164465

CNN_feature_extractor.layer1.3.weight f4 [8, 8, 3, 3]
00000000: 43f9 b93d 0a5e 77bd ffd7 bebd f96a c23d
00000010: 983d 39bc e13c 9a3d 586b e63d 675b 173b
00000020: ff44 913d 8963 7dbc 4ce6 acbd 2d6c cdbc
00000030: ea52 6c3c a406 33bd 19c7 1a3d 2395 c1bd
00000040: 38dd 1e3d e439 b7bd 229d 08be 9f68 7e3d
00000050: 29ca 53bd 3dd7 343d 4ce3 233d b45d 83bd
00000060: 8197 463d e2f3 9d3d 29ad d23c 0a53 40bd
00000070: b714 7c3d e952 c0bc 72b1 513c 6a3e 1ebd
00000080: 6ce7 e33d b429 593d e108 ac3d c84a 5abd
00000090: d016 66bd 5c8b 95bc 2a1f 16be 075f e4bb
000000a0: eda8 1cbd 4c44 9fbd ad83 27be 494f 10be
000000b0: 05b3 453c a03a a4bd 9987 3b3d 4263 b03c
000000c0: b8e3 d03d 0e34 773c c6b1 b23d 839f 4f3d
000000d0: 1f1a 98ba df90 693d cbb7 9dbd 15e3 b93d
000000e0: bdb6 ba3c bdab e13c bfa4 90bc 43eb 893c
000000f0: 4553 993d a40e 183d 9813 eebc 30fa ae3b
00000100: aab2 10bd c4ff 15bd 1869 92bd aff4 a43d
00000110: 3e73 373c 86ee bebd d32e d23d 6bd7 d43d
00000120: 5a08 d0bd dd7e 383c b3c0 9a3d dc54 13be
00000130: 77c6 05be b983 da3d 4507 93bd 4947 053c
00000140: 7a1d f63d 8be8 e03d 18ee d23d 7fe5 d33c
00000150: 7e28 97bd d719 1abc 6ac1 f2bc 683c a73d
00000160: 11ec 4bbd 53e0 6fbd 8569 cbbc 994a d3bd
00000170: 10fe 823d ef32 48be 5e48 ad3d 0872 353d
00000180: 9ea8 2bbe 1903 bf3d 150c 3a3d 0896 a3bc
00000190: d511 edbd 1c9f b0bc a11d fdbd 0be3 eebd
000001a0: 5e8f 0ebd a4e4 95bd 606f e0bb 0a66 1abd
000001b0: 16f5 103e 31fe b0bc 8c51 ed3d a5ed cf3d
000001c0: 7770 bd3d 800f 9ebd 19dc c03d 1876 b03d
000001d0: c9f9 87bc 3fd0 afbd 900d 6abd bd84 5ebc
000001e0: dba0 39bd 403c 9e3d 404f 113e 6620 2c3e
000001f0: 3bfe 093e dffc f83d a32d 24be 83b2 9c3d
00000200: e672 973d f0fb a1bd 62f2 58bd 70fd 65bd
00000210: 501b 523d f34f 233c bcb8 65bd 0894 08be
00000220: 7144 a2bd 2b02 2d3d 9c94 d3bd 5307 193d
00000230: c5c0 023e 818d 8b3d 9ee7 09bd 527f b0bc
00000240: 4322 2c3d d732 8d3c 10c9 4cbc 9609 1bbd
00000250: 59e4 fd3c 2482 24bd 6148 e73d a007 c33d
00000260: 5aaa a33d 5ec9 5d3d 47c1 f6bd e435 f43d
00000270: 36f2 87bd c446 90bc cc62 b43d e766 7abd
00000280: 7417 2dbc 0003 11bd 538b 2a3e 32d4 2c3d
00000290: c220 f33d 873d 56bd 8c9a 203d a269 143e
000002a0: 5dae 293c dcd8 1e3d e81e 533d 8ed7 383d
000002b0: 505f 8ebd a8ad 953c 7f24 51bd 8261 07bd
000002c0: d3a3 f53d 9f1c dfbd fa19 cc3d 46d7 65bd
000002d0: 6b83 27bd 0988 2b3e e1f0 9c3d 5fbb acbd
000002e0: 163d cc3d ef03 003e 87b9 8abc bafb 083e
000002f0: 9c2c d03c 8bdb ba3d a792 bbbc 11a1 69bd
00000300: 92d7 0bbc 9523 733d 913f 8dbd b405 db3d
00000310: a63f 38bd 1c4a 583d 0365 ce3d 673d a5bd
00000320: 29a4 973c fca5 6d3d a7dc ffbc deb0 86bd
00000330: ed36 75bd 3971 523d 9d6a afbd 2eda ad3d
00000340: eb6d 74bd 7b15 febc 670b 163d 88c2 e7bd
00000350: 6a96 9dbd 2b70 8dbd 3e8c 9cbc 4168 d3bd
00000360: ab3a a9bd 35c9 973d 5d36 8ebd 6251 4f3d
00000370: 9bce e83c fba2 ddbd 5682 f1bd 0108 9f3d
00000380: 2a59 8ebc 8fe9 3cbc 1c98 be3d 06b6 f7bd
00000390: 354f 943d c860 c7bd b7bb b1bd 0b0b f13d
000003a0: f48b 37bc 8af2 71bc 596a fb3d eb95 203d
000003b0: e9bf 933c 00ae 3f3c 9b03 7bbd dbb8 303e
000003c0: 859b de3d b7c9 0cbd 707f 493d 2d7d a8bd
000003d0: 463b c1bd 04fe 913d 5d80 4e3d 7332 67bc
000003e0: ec69 febd 6b0d be3d 8df5 563d 724a aa3d
000003f0: 73e1 2c3e ce18 16bc 5b4b 193e cde1 393e
0.09080746 -0.060392417 -0.09318542 0.0949306 -0.011306189 0.07531143 0.11250943 0.0023095252
0.07093238 -0.015465626 -0.08442363 -0.025075996 0.014424065 -0.043707505 0.03778753 -0.09452274
0.03878519 -0.08946589 -0.13341191 0.062111493 -0.051706467 0.04415058 0.04001169 -0.06414357
0.04848433 0.077125326 0.025717335 -0.046954192 0.061543193 -0.023477035 0.012798654 -0.03863374
0.111281246 0.053018287 0.08400131 -0.053293973 -0.0561741 -0.018254928 -0.14660326 -0.006969336
-0.038247038 -0.077766985 -0.16358824 -0.14092745 0.012066607 -0.08018994 0.045783613 0.021531705
0.10199684 0.015088094 0.08725314 0.05068923 -0.0011604464 0.057022925 -0.07701071 0.090765156
0.022792215 0.027547712 -0.017656682 0.016835814 0.074865855 0.037123337 -0.029062077 0.0053398833
-0.035326637 -0.03662087 -0.07148951 0.08054482 0.0111969095 -0.093228385 0.10262837 0.1039265
-0.10157843 0.011260715 0.07556286 -0.1438784 -0.1306399 0.10669655 -0.07179121 0.0081346715
0.12017341 0.10981854 0.10299319 0.025866268 -0.0738077 -0.009405575 -0.029633243 0.081658185
-0.049785677 -0.05856354 -0.02483059 -0.10316963 0.06396115 -0.1955068 0.084610686 0.0442982
-0.16763541 0.09326763 0.04542168 -0.019969001 -0.11575667 -0.021560244 -0.12359167 -0.11664399
-0.034804694 -0.07319 -0.0068492144 -0.03769497 0.14155993 -0.021605583 0.115878195 0.10152749
0.092499666 -0.077178 0.0941698 0.086162746 -0.016598599 -0.08584642 -0.05714184 -0.013581452
-0.04531942 0.077263355 0.14190388 0.16809234 0.13475887 0.12157606 -0.16033034 0.07651236
0.07394962 -0.079093814 -0.05296553 -0.0561499 0.05129558 0.009967792 -0.05608438 -0.1333772
-0.079232104 0.042238396 -0.10331079 0.0373605 0.12768848 0.06814099 -0.033668153 -0.021545086
0.042024862 0.017236156 -0.012499109 -0.03785094 0.030992674 -0.040163174 0.11293102 0.09522939
0.07991476 0.054147117 -0.120485835 0.11924341 -0.06637995 -0.017611869 0.088079065 -0.06113329
-0.010564674 -0.03540325 0.1665471 0.042194553 0.118714824 -0.05230477 0.039209887 0.1449342
0.010356513 0.038781032 0.051543146 0.045127444 -0.06951773 0.018271282 -0.051060196 -0.033051975
0.119941376 -0.10894131 0.09965892 -0.056113504 -0.040896814 0.16751112 0.076631315 -0.08434176
0.09972589 0.125015 -0.01693417 0.13377276 0.025411896 0.09123906 -0.022897078 -0.05703837
-0.008535283 0.059360106 -0.0689689 0.10694447 -0.044982575 0.05280505 0.1007786 -0.08068352
0.018510895 0.058019623 -0.031233145 -0.065767035 -0.059866834 0.05137751 -0.08565257 0.0848888
-0.05967514 -0.031016102 0.036631968 -0.11316401 -0.07694705 -0.0690616 -0.019109841 -0.10322619
-0.08263143 0.07411424 -0.06943963 0.050614722 0.02841883 -0.10822102 -0.11792438 0.077651985
-0.017376501 -0.011530294 0.09306356 -0.12095265 0.0724167 -0.097352564 -0.08678382 0.117696844
-0.011202801 -0.0147672985 0.122761436 0.039205473 0.018035846 0.0116992 -0.061282735 0.17258017
0.10869507 -0.034372058 0.0491938 -0.082270004 -0.09435134 0.07128528 0.050415386 -0.014111149
-0.12422547 0.09279903 0.05248027 0.083149806 0.16882877 -0.009161187 0.14970152 0.18152542

CNN_feature_extractor.layer1.3.bias f4 [8]
00000000: e9de c53d 6ae9 1a3e 635c 813d 2c0d 573c
00000010: ea09 cfbd 6f58 bb3d c844 b83d af3a de3d
0.09661657 0.15128103 0.063164495 0.013125699 -0.10109313 0.09147727 0.08997494 0.10851037

CNN_feature_extractor.layer2.0.weight f4 [32, 8, 5, 5]
00000000: d3cf 06bd abce ad3c 5c38 09bd 9660 51ba
00000010: b94a 02bd ac9a 3f3c b2b6 30bd 9fee 083d
00000020: b9e5 2bbd 4caa d4bd 64f4 3f3c 4878 24bc
00000030: 6bfe 553d c4a9 e93c 59d8 77bd 25d3 243d
00000040: 3960 193d 9f37 b53c 375f 093d 83c4 a0bd
00000050: 685d 8fbd e467 a0bd 471a 63bd fff6 2bbc
00000060: 0e12 92bd 6d39 0f3c cc77 86bd 6610 ccbd
00000070: d9ab 51bc 00ea f33c aefa d13c b805 26bd
00000080: d9a9 2b3d 2696 aa3d 70b4 fb3c 2768 313d
00000090: 5742 5d3d 383e 833c 6841 c63d 1f69 963d
000000a0: f63c 203b 69ce e83c a93f e3bb df16 84bd
000000b0: 8ddc dabc b334 37bd 96ba b0bd 2a5b 24bd
000000c0: fceb 99bd a7a9 05bd a200 c43d 05fe 6abc
000000d0: 6689 273d 8e43 8dbc 288a 323d 7b6a 15bd
000000e0: 3661 59bd d1db be3c cd26 04bd 2986 8c3c
000000f0: d18d 44bc 18b4 8b3d 7c58 9abc d546 debc
00000100: da74 c73d 7438 cc3c 4fbb 373d d95b 0b3c
00000110: e77d a3bc d585 cb3d cf30 8f3c a0be 093d
00000120: 84a6 83bd e9ac 1dbd 16b2 933d b8a6 823d
00000130: 6bdf cc3c 5f34 febc cb5e 933d 8adf 0b3d
00000140: d742 dd3c 7eca ea3a 80b0 993c 22fa 8e3c
00000150: a329 8c3d 06ce 0cbd 0a23 16bd 84ee ba3c
00000160: a8fa 653b 5731 11bc 83de f83c 5ec7 213c
00000170: d5f6 b1bc 109e 5cbc 45e9 b33d 6044 bfb7
00000180: e736 803d ceca 103d 23d0 133d 755d 48bd
00000190: 4e60 423d ab08 d33c 851b 253d b51b 833d
000001a0: a2a8 d53c 5129 bfbc 5b63 c1bd a0c6 94bd
000001b0: 5399 ab3c d34e a73d 9a51 a1bd 0acd f7bd
000001c0: 583f fcbc 6ae4 c23d fec1 bc3c b417 4abd
000001d0: fccf 8dbd f2cf 5f3d 38b7 1b3d 3715 693d
000001e0: 0fe8 d53b 0643 e0bc 5359 06bc 0efb fbbd
000001f0: 534b 28bd 12fd 463c 873f 53bc 60fe 1c3d
00000200: 8e5f 323c a9de 643d 0479 51ba 7d32 32bb
00000210: 557b 243d cdc7 20bd 7099 d8bc 3bd2 683d
00000220: 88e5 863d 2df0 5c3d fd62 78bc 937b 483d
00000230: 0f2d 4d3d 4082 643d 15dc 903d a19c 0ebd
00000240: 3ad3 ca3d 34e8 2f3b 43cd 453c 5308 2f3d
00000250: 3489 fcbc 3ba6 833c 732d 2ebd 59dd 333d
00000260: 9a9e 5d3d 238a c53c 5caa 293e f0c3 4e3d
00000270: 5082 62bd f130 713d c1cd 51bd bf3d fa3d
00000280: 3190 bfbc 4416 abbd 2407 3c3d 536b 7ebd
00000290: cb9a ac3d 5003 92bc 0133 2a3c 5c41 c3bd
000002a0: 8077 a3bd 5574 333d 4964 983c 2c72 6c3d
000002b0: 6550 3ebc 37da eabc ad10 db3d b46a f63c
000002c0: 3f0b a53c 00ef 503d 86af 453c 640f bbbd
000002d0: 304d 233d bf05 6a3a ba24 debc 3413 ce3b
000002e0: 5a36 1c3d 80b8 adbc 2053 333d c0da 40bd
000002f0: e94d 84bb 651f 0f3d b652 86bb 89cb aebc
00000300: 3eb5 183d c387 25bd e8a9 803d b179 083b
00000310: c572 0b3d a5cb 67bd 42e0 aabb d1d3 54bc
00000320: f9dd 253d 94d7 70bd 44ab 8fbd 76ff 9dbd
00000330: e1c5 6e3d 1c87 aabd 97c1 4d3d 5173 693c
00000340: 35ca a8bc 9dee 39bd 1962 9cbd 37ef 043c
00000350: e745 54bd 6cc1 f93a 4560 2fbd 7615 78bd
00000360: 6932 c8bc 6ab2 91bd a36e 663d 41b7 8dbd
00000370: f813 0f3b 501c 72bc d969 26bd 5c8f 443d
00000380: a72b cc3c c4a3 d83d 2689 263e 9153 c03d
00000390: ec3a 723d a3b5 6ebc 9dbf 193e 74e3 b73d
000003a0: a12c 933d 60d0 8a3c e16d ca3b a58b eb3c
000003b0: 0b6e 96bc 9697 6cbc 1113 953d 6acb 283c
000003c0: 80f2 043d 079f 3b3d 10b8 4dbc d9a2 04bd
000003d0: 269d 5ebd 0b19 163d 0758 c13c 81e5 1a3d
000003e0: 7b02 e1bc bae5 85bd 1e6b 7a3d 4d15 433d
000003f0: 232e 323d 4ae8 9b3c fff0 0bba ad79 2d3d
-0.03291304 0.021216711 -0.033501014 -0.000798711 -0.031809542 0.0116945915 -0.04314298 0.03343069
-0.041967127 -0.10384044 0.011715982 -0.010038443 0.052244585 0.028523333 -0.06050906 0.040240426
0.03744528 0.022121249 0.03353807 -0.07849982 -0.07000238 -0.078323156 -0.055444982 -0.0104959
-0.0713235 0.008741719 -0.06565818 -0.09964065 -0.012797319 0.029774666 0.025632229 -0.040532798
0.041910026 0.0832942 0.030725688 0.043312218 0.054018345 0.01602088 0.09680444 0.07344269
0.0024450398 0.028418737 -0.006935079 -0.06449675 -0.026716495 -0.044727992 -0.086293384 -0.040126003
-0.075157136 -0.032632496 0.09570433 -0.01434279 0.040902518 -0.017244127 0.043588787 -0.0364785
-0.053071223 0.023298176 -0.032263566 0.017153816 -0.011996702 0.068214595 -0.01884102 -0.027133385
0.097390845 0.024929263 0.044856366 0.008505785 -0.019957496 0.09937636 0.017479328 0.03362906
-0.06428245 -0.038494978 0.072117016 0.06379455 0.025008878 -0.031030832 0.07195815 0.03414873
0.02700941 0.001791313 0.01876092 0.017453257 0.06843879 -0.034376167 -0.03665451 0.022818811
0.003509203 -0.008861861 0.03037954 0.009874193 -0.021724144 -0.013465419 0.08784727 -2.2800814e-05
0.06260472 0.03534966 0.036087167 -0.048917253 0.047455125 0.02576097 0.040309448 0.06401769
0.026081387 -0.02333513 -0.09442779 -0.07264447 0.020947134 0.081693314 -0.078768924 -0.12099655
-0.030791923 0.09516223 0.023041721 -0.04933901 -0.069244355 0.05464167 0.038016528 0.056904998
0.0065279077 -0.02737571 -0.0082000075 -0.12303744 -0.04108746 0.012145298 -0.012893564 0.03832853
0.01088704 0.055876408 -0.000799075 -0.0027190738 0.04015668 -0.039253045 -0.026440352 0.056841116
0.06586748 0.053939987 -0.015160319 0.048945975 0.0500918 0.05578828 0.07073227 -0.03481734
0.099035695 0.0026841285 0.012072864 0.042732548 -0.030827142 0.016070476 -0.042523813 0.043912265
0.054106332 0.02411372 0.16568893 0.05047983 -0.055300057 0.058884565 -0.051221613 0.122188084
-0.023384186 -0.08353856 0.045905247 -0.06211407 0.08427962 -0.017823845 0.010388137 -0.09533951
-0.07981777 0.043812115 0.018602507 0.05772607 -0.011615847 -0.028668506 0.1069654 0.030080177
0.020146964 0.05100918 0.012065774 -0.09133795 0.039868534 0.0008927248 -0.027117122 0.0062889103
0.03813777 -0.02120614 0.043780446 -0.047083616 -0.004037608 0.03494205 -0.0040992154 -0.021337288
0.03728222 -0.040412676 0.06282407 0.0020824487 0.034045 -0.056590695 -0.005214722 -0.012989954
0.040494893 -0.05879934 -0.07015088 -0.07714741 0.05829418 -0.08326551 0.05023345 0.014248685
-0.020604232 -0.045393575 -0.07635898 0.008113674 -0.051824477 0.0019054837 -0.04281642 -0.06056734
-0.0244381 -0.07114108 0.056257855 -0.069197185 0.002183197 -0.014777258 -0.040628288 0.04798828
0.024923159 0.10578111 0.16263255 0.09390939 0.059138224 -0.014569673 0.15014501 0.0897893
0.07186247 0.016945064 0.0061776494 0.028753111 -0.01836302 -0.014440438 0.07279027 0.010302404
0.03245783 0.045805957 -0.012556091 -0.032381866 -0.054349087 0.036644977 0.023601545 0.03781653
-0.027467003 -0.065379575 0.06113731 0.047627736 0.04350103 0.019031662 -0.00053383404 0.042352367

CNN_feature_extractor.layer2.0.bias f4 [32]
00000000: 3802 4fbd 54c0 e93c d796 f9ba bdf0 a43a
00000010: fb8c 05bc 2037 413c a876 1b3d b2f7 1d3b
00000020: 2b0e c3bc 5020 57bd 7022 373d fcb3 71bd
00000030: bb64 553d 58a6 f8bc 1eff 643d 19df 233c
00000040: 6d33 c6bd c541 21bd 073d 223d 090a 81bd
00000050: 6248 b4bd 733a dc3c 85ad 4ebd c62e dfbc
00000060: 1889 1b3a 84dc 9abd d76d 54bc 934a 2f3c
00000070: 5228 a83c f972 1dbd 8adf 7cbd 0dae 85bd
-0.050539225 0.028534092 -0.0019042146 0.0012583953 -0.008151288 0.011792928 0.037954956 0.0024103937
-0.023810467 -0.05252105 0.044710577 -0.059009537 0.052098017 -0.030352756 0.05590736 0.010001921
-0.096777774 -0.039369363 0.03960898 -0.06300742 -0.088028684 0.02688334 -0.05045845 -0.027243983
0.00059332093 -0.07561591 -0.012965641 0.010698932 0.020527039 -0.038439725 -0.06173662 -0.06527338

CNN_feature_extractor.layer2.2.weight f4 [32, 32, 3, 3]
00000000: 11d5 cf3c 7dd0 e13c 4773 803b 8954 b2bb
00000010: f950 3abd b006 adbc dd06 21bd b24a 04bd
00000020: 1264 a33d ff7e 3cbd 2917 493c ad50 063b
00000030: 2ca2 5d3c 8803 60bc fa47 94bd b978 53bd
00000040: 2f32 19bc 2eaa 1f3d 293f 9d3d 2e6d 493d
00000050: fcd0 df3c 74ac f73d 6017 d63c 4750 023e
00000060: 10de f73b 6ace ffbc c0f0 c23c 8ad0 a33d
00000070: 35c5 4dbc 685b 1b3c d2bb e7bc 28ca fd3c
00000080: a6e5 c53c c344 f6bc d3be 61bc a0a8 99bd
00000090: 538c 223d a851 5e3d a3fd 46bc a33c 5b3d
000000a0: 7a01 dbbc a290 a6bc 7d95 33bd 7b27 c4bc
000000b0: 85a8 3d3d 1dbb 96bc 0549 9dbd 9ea4 c4bd
000000c0: e86c 5fbd 53ef dd3c 95a7 a7bc d89c 67bd
000000d0: 78a8 58bd b7ac 9e3c 6f93 07bd 40a3 a93a
000000e0: 286e da3c b886 ceba 9ce5 46bc 4a21 c3bd
000000f0: d460 e1ba b52c c0bc 6d57 91bc 3475 b43b
00000100: 2b46 123b 2262 9e3d 1450 e53b 63d5 99bd
00000110: 7f13 17ba e88c 1b3d 7139 693d fdbd ad3d
00000120: c049 cf3c d5c5 f3bc cd4f f7bc a18c 60bc
00000130: 7003 edbc d766 edbc daab 6dbd 4497 b7bd
00000140: 4987 0c3b 75ed 613d c5a0 80bc aadc b9bd
00000150: 1c70 abbd 59a0 afbc 77db aabd bf38 12bd
00000160: abed da3b 58f7 95bd 6c42 9c3d 5357 6b3c
00000170: 1e0c 12bd 7a50 cbbc 68b9 443d 297c 59bb
00000180: 8993 443c e902 86bd 197a 6a3d 5798 8c3d
00000190: f302 093d 216e cabc 67dc 923c 9203 af3b
000001a0: a388 67bd c9e3 36bd edd8 633c 8e61 88bd
000001b0: 9954 1bbc 21ad e3bc 7498 053d bb21 873c
000001c0: ebe6 943c 4536 2ebd a2d1 f5bb 1a94 2ebd
000001d0: 23ef 40bc 298b 363b 4054 ee3c f308 953d
000001e0: 80d2 c33c 3b00 ba3c 8ffd 8a3b c188 673c
000001f0: 8286 483d 9ef5 703d e3a0 c93d 2896 d93d
00000200: 0cf0 ae3b 3252 383d 217e 41bd d8a9 39bd
00000210: 7c80 663d 21f6 6fbc 2616 30b9 6ecd 8abb
00000220: 04e7 70bc 626a b1bc 5c97 433c d6af 7cbd
00000230: 6649 eebd 6311 ffbc c003 2abd 17c9 b73c
00000240: 95b1 2e3d d773 8bbd 9b0e 283d 1c2a 123c
00000250: eb9a 76bc 6c15 4a3d a4f7 ee3c 8195 b2bc
00000260: 8e61 34bd 9f2c 42bd 71c1 2bbc af0b 05bd
00000270: b8e1 3cbd bbb4 973c c029 c33c 6bd6 64bd
00000280: 47ef 783d c3c7 7abd 739b 7f3d dd01 7c3d
00000290: 6bd1 b83c 07b2 153d 00b8 023b b922 cb3c
000002a0: d5b0 5dbd 44c9 27bc 7bef 3c3d bda4 5e3d
000002b0: 168d 24bd 8ebd d3ba d028 0d3c 5142 323c
000002c0: 1c7c 393d 8492 0f3d 37df 913c ff64 ba3c
000002d0: 0b2e d7bc 861e 6c3d db64 673d 7454 a73a
000002e0: 919c babc 7a66 3fbd f934 e43a 627f e83b
000002f0: 759e 34bc 620e 9c3c 9977 823d 31a7 233d
00000300: 989b 1cbb de04 b7bb 9676 aebc 47c8 ce3b
00000310: dc93 b13c 57c2 63bd 4a6e b3bc 277b 9a3c
00000320: 584d 163c e7b1 d03c 2fae 363d 5751 ca3c
00000330: 21d9 0dbd cdfe a5bd 983d adbd bc48 c03d
00000340: 146f e33c 1ebf d9bc 8fa3 bf3d 64f7 6bbd
00000350: 1a94 f6bc 2080 a73b 4e74 b03c 309b b1bd
00000360: a0ae 2e3c cc86 173d 42c5 06bc 098f 253d
00000370: 78bc 4fbd bf7a 1c3d fc8d 00bd 3ee6 91bc
00000380: 8c45 173d c273 0bbd 588b f5bc 6cf6 19bd
00000390: 8bbd 113d 30c3 7b3d 503b e53c 653f 503d
000003a0: f44d 563d 2f4c b73c 8078 06bd 44f0 503d
000003b0: 1a2c 113d b431 743c 8786 3a3c 0a71 6b3d
000003c0: 0715 80bd 2718 71bd 4384 213d fb70 343d
000003d0: 103c 853d 2b5d b83d 58b3 873d d9ac ff3c
000003e0: d137 ab3d 28e5 9e3d c744 ef3c 56c6 ae3d
000003f0: 9dc0 4cbb 7dca 22bd 4775 a6bc 3107 77bc
0.025370153 0.027565235 0.003919992 -0.0054422063 -0.045487378 -0.021121353 -0.039313186 -0.032297798
0.07978071 -0.04601955 0.012273588 0.0020494864 0.013527434 -0.013672717 -0.07240291 -0.051628802
-0.009350344 0.038980655 0.076780625 0.049176387 0.027321331 0.1209344 0.026134193 0.12725936
0.0075643137 -0.031226356 0.02379644 0.0799876 -0.012559225 0.009482242 -0.028287802 0.030980185
0.024157356 -0.030062085 -0.013778406 -0.07502866 0.039684605 0.054277092 -0.012145433 0.053524625
-0.026734103 -0.020332638 -0.043843735 -0.023944607 0.04630329 -0.01839977 -0.07679943 -0.09601711
-0.05454722 0.027091658 -0.020465652 -0.056546062 -0.05289504 0.019369466 -0.033099588 0.0012942329
0.026663855 -0.0015756702 -0.012139704 -0.09527834 -0.0017194995 -0.023458818 -0.017741883 0.0055071358
0.0022319655 0.07733561 0.0069980714 -0.075114034 -0.0005763098 0.037976176 0.056939546 0.08483503
0.025303721 -0.02975742 -0.03018942 -0.013705404 -0.028932303 -0.028979702 -0.05802522 -0.089643985
0.002144294 0.055158097 -0.01570166 -0.090752915 -0.083709925 -0.021438764 -0.08342641 -0.03569865
0.0066811643 -0.07322568 0.076298565 0.014364081 -0.035656087 -0.024818648 0.04802838 -0.0033185577
0.011998066 -0.06543524 0.057245348 0.06864994 0.03345008 -0.024710717 0.017927362 0.005341002
-0.05652679 -0.044650827 0.0139067 -0.06659232 -0.009480619 -0.027792515 0.032616094 0.016495576
0.018176517 -0.042532224 -0.007501797 -0.04262171 -0.011775765 0.0027853942 0.029092908 0.072770976
0.023904085 0.022705188 0.0042416523 0.014131726 0.0489564 0.05882799 0.0984514 0.10624343
0.0053386744 0.045000263 -0.047239427 -0.04532799 0.056274876 -0.014646084 -0.00016792919 -0.004235915
-0.014703516 -0.021657173 0.011937942 -0.061691128 -0.116350934 -0.03113622 -0.041507483 0.022434754
0.042649824 -0.06809204 0.041029554 0.0089211725 -0.015051584 0.049336836 0.029170819 -0.021799805
-0.044038348 -0.047405835 -0.010483132 -0.032481845 -0.0461137 0.018518796 0.023823619 -0.055868547
0.060775068 -0.061225664 0.062404107 0.061525214 0.022560796 0.036546733 0.0019946098 0.02479683
-0.05412372 -0.010240857 0.046126824 0.054356325 -0.040173613 -0.0016154514 0.0086156875 0.010880069
0.045284376 0.035051838 0.017806632 0.022753237 -0.026267072 0.057646297 0.056492668 0.0012766258
-0.022779735 -0.04672859 0.0017410807 0.0070952633 -0.011024107 0.019049827 0.06370468 0.039954368
-0.0023896452 -0.005585297 -0.02129678 0.006310496 0.02167695 -0.05560526 -0.021903176 0.018857552
0.009173714 0.025475455 0.04459971 0.024696989 -0.0346309 -0.0810524 -0.08459014 0.09388873
0.027762927 -0.02658039 0.09357368 -0.057608977 -0.030099917 0.0051117092 0.021539833 -0.08672178
0.010661751 0.036993787 -0.008225741 0.040419612 -0.050716847 0.038202997 -0.031385407 -0.017809983
0.03693156 -0.034045942 -0.02997367 -0.03758852 0.035581153 0.061465442 0.027982384 0.050841708
0.052320436 0.022375194 -0.03282976 0.051010385 0.03544245 0.014904428 0.011384613 0.05748085
-0.06254011 -0.058860924 0.039432775 0.04405306 0.06505597 0.090021454 0.06626004 0.03121035
0.083602555 0.07758552 0.0292076 0.08533923 -0.0031242736 -0.03974389 -0.020319594 -0.015077398

CNN_feature_extractor.layer2.2.bias f4 [32]
00000000: 51ba 7dbc 6c16 c0bc 42ab 84bb 8542 9ebd
00000010: 3c3f 6c3d 7595 93bd 1268 7cbb 4de2 2abc
00000020: bf18 273d dd28 9a3c ea91 38bd c24e 63bd
00000030: ae2c 4abc 5343 70bc 7450 e3bb 8f83 c93c
00000040: eb14 ddbc bd3e 94bc 30f4 443c 90ab 093d
00000050: 8daa 0b3d 191d 013d b929 e53b c331 333c
00000060: f053 1a3c 9274 5dbd 1613 6ebd 12fd ccbb
00000070: 92b0 66bd 7ca3 383c 6ddd 48bc 9ada 4b3d
-0.015486316 -0.023448192 -0.004048736 -0.07727531 0.057677492 -0.07206241 -0.003851418 -0.010429931
0.040795084 0.018818313 -0.04506103 -0.05549503 -0.012339754 -0.014664489 -0.006937081 0.024598865
-0.026987514 -0.018096322 0.012021109 0.03361088 0.034098197 0.03152189 0.006993499 0.010937157
0.009419426 -0.05406625 -0.05812367 -0.0062557543 -0.056320734 0.011269446 -0.012259823 0.04976902

CNN_feature_extractor.layer3.0.weight f4 [64, 32, 3, 3]
00000000: ceb1 1f3d f611 393d d858 56bd 815c 41bd
00000010: ca65 41bd 1fda e0bc df63 2cbd fc28 3c3d
00000020: 6802 12bd 1c66 273d 1241 803d db4a 493d
00000030: fafd 2b3d 3b1d 35bd 5681 533d 6d44 cf3c
00000040: f2d5 b03c 3ccf 883d 3906 9dbb fe97 a9bb
00000050: f835 013d 2670 163d 77ed 01bd d249 11bc
00000060: 0d9a f43c 63f7 42bd d527 13bd 9766 cbbc
00000070: 0eca d83b 7dee f93b 38d9 7f3c 8d03 9f3c
00000080: b64f 92bc af86 5d3c 5715 2ebd 9ddc 91bd
00000090: 0c1f a93c 4e6e 8dbd 3f8c 073d b1bb 1dbd
000000a0: f0dd 063d 282d 943d 305e 953d 04bf 0c3c
000000b0: 6502 bd3d b3c1 83bc 323f cebc 5a22 ea3b
000000c0: 4182 6a3d 835f 123d 1507 623c c498 193d
000000d0: 57f2 913d e8aa 1bbb ec69 153d e944 803d
000000e0: 8c19 933c 7a99 7bbd 3ffe fa3b acfe 733c
000000f0: 6706 8dbc 0a11 9bbc b06a 143d 8711 7d3d
00000100: f273 123c d7ea d83c 3094 763d 8aed 4c3d
00000110: 4b94 563d a6e8 de3d 8b4f 533d cec8 cf3d
00000120: 92d5 66bc e171 693d 7576 4a3d 0270 e73c
00000130: 08d2 be3c ad30 b33d 7f5f 623d 66fc 743d
00000140: 7911 023e 92b8 ecbc ca4c c9bc 3b17 a2bc
00000150: eb5d 5fbc b330 673d 6aeb 893d 7772 7e3c
00000160: f048 6e3d 6e5b aabb 3796 b63c e135 ffbc
00000170: cba2 c0bb 36e3 34bd 65e2 6d3c f2ed 1ebd
00000180: b21b 58bb 13fc b9bc 8898 5eb9 0f69 c33b
00000190: 1f3b 2d3d 18a9 b43c 6672 673c b1ad 243d
000001a0: e273 313d 5013 fb3c 18a3 23bd a6c4 33bc
000001b0: d8db cc3b 3bd4 583d 4f19 e43d 775a f23d
000001c0: 7e2b 893d d810 743d 462f 1f3e 4c59 583d
000001d0: d235 1d3e c16d 77bc ce84 083b 6988 5e3c
000001e0: 78c7 4b3d b767 1cbd 212f 333d bf9f 49bd
000001f0: 0494 f039 7321 a5bd 92d5 823b d1eb 123d
00000200: 1fa7 a5bd ed96 dd3c e3f4 8fbd e88c 03bc
00000210: 18d5 07bd bed5 78bd fbdb 05bd e862 803d
00000220: 8f69 163c 580b d43c 5ca0 123d ebc9 32bc
00000230: e638 7dbc 55db 23bc 7338 1abd f4fe b2bc
00000240: dd81 80bc 5a90 82bc ea85 10bd b419 353a
00000250: 9314 9b3c e170 7b3c 941e ca3c 6591 40bc
00000260: 8d58 80bd 03b5 9e3c c8b8 eebb 2cbb d73b
00000270: 4ac8 863a a052 bbbd 3591 0dbd 242d 90bd
00000280: cc4b 0b3b ae65 01bd 2d8d 85bc 64e9 1b3d
00000290: ba22 3fbc 0a57 223c f8fa 713d 39b9 b23c
000002a0: 33d9 de3d 167b a53d 41a3 f03b 8522 0c3d
000002b0: babd 553d 4a69 2cba fbbb ad3b ab2d 68bb
000002c0: 4425 843c 7721 93bc 992f 853d bdb9 21bb
000002d0: cba5 a63c bf91 0dbd c466 3cbd 5c3b e2bc
000002e0: cb3d 66bc 4036 85bd 3082 11bd 1355 14bd
000002f0: 92a8 acbc 6540 92bc 92e7 4b3c 2bb4 a03d
00000300: e19d e7bc 2069 653d 1a99 3c3d 22e6 563d
00000310: dd14 623d 83f6 5f3d 94c1 933a e4b5 2dbd
00000320: 99de 88bb 8979 ebbc 9cad c3bd 997e c2bd
00000330: cfc0 93bd d667 01be a241 2cbe ab42 683d
00000340: 03f1 8f3c 340f 03bd 0775 3f3d 1978 133d
00000350: 87d1 72bc 9075 2c3d 6c64 09bb b296 6b3b
00000360: aa09 083d 2466 683d 5384 a6bc 67ca 993c
00000370: 5d44 5dbd e47d 433c d599 c3bc 217a 6fbd
00000380: 1ce4 4bbb 98e2 15bd b648 523d 0df4 1b3d
00000390: ea7b 183c ece1 4cbd b238 d73c b2ad 59bc
000003a0: 0f96 0ebc 792f 2b3c 1c07 363d b2c9 1f3d
000003b0: 036f 813c 94f1 803d c9b2 e4bb 0887 d3bc
000003c0: b12e c63d 882f 543d 7723 343b 5fcc fdbc
000003d0: f2a0 3cbd f05b 88bc f762 d6bc 142d 27bd
000003e0: 79ac d3bc 3b3b 9ebc 984c da3c 390a d5bc
000003f0: 98be bbbc 7c64 7cbb 1ae9 67bc de68 28bd
0.038987927 0.045183145 -0.05233082 -0.04720736 -0.047216214 -0.027447758 -0.042087432 0.045937523
-0.035646826 0.040868863 0.06262411 0.049143653 0.041990258 -0.04421733 0.051637016 0.025301183
0.021586392 0.06680152 -0.0047920016 -0.0051755896 0.03154561 0.036728047 -0.031720605 -0.008867698
0.029858613 -0.047599208 -0.03592666 -0.024829192 0.0066158837 0.007627307 0.015615754 0.019410873
-0.017860275 0.013520881 -0.04250082 -0.07122157 0.020644687 -0.069058046 0.033092733 -0.038509075
0.0329265 0.07235175 0.072933555 0.008590464 0.09228972 -0.016083574 -0.025176618 0.0071452083
0.057253126 0.03573562 0.013795634 0.037499204 0.07126301 -0.002375299 0.036477968 0.062631436
0.017956518 -0.061425664 0.007659703 0.0148922615 -0.017214967 -0.018929023 0.036234558 0.061784294
0.008938776 0.026479168 0.060199916 0.050031222 0.052387517 0.10884218 0.05158953 0.10145722
-0.014089005 0.05699337 0.049429376 0.028251652 0.02329351 0.087495185 0.055266853 0.05981102
0.12701978 -0.028896604 -0.024572749 -0.019786468 -0.013633232 0.056442928 0.06734355 0.01553022
0.058175027 -0.0051988875 0.022288425 -0.031153621 -0.0058787814 -0.044161998 0.014519309 -0.03880114
-0.0032975492 -0.022703206 -0.00021228392 0.0059634517 0.04229271 0.022053286 0.014126396 0.040204708
0.043323405 0.030648857 -0.03995046 -0.010972178 0.0062517934 0.052936774 0.1113764 0.11833661
0.066977486 0.059586376 0.15545377 0.052819535 0.15352562 -0.015101851 0.002083111 0.013582327
0.049750775 -0.038184848 0.043746118 -0.04922461 0.00045886647 -0.080630206 0.0039927447 0.035869423
-0.080885164 0.027049506 -0.0702913 -0.0080292 -0.033162206 -0.060750715 -0.032680493 0.06268865
0.009180441 0.025884315 0.035797462 -0.010912399 -0.01545546 -0.010001023 -0.03765149 -0.021850087
-0.015686924 -0.015937973 -0.03528396 0.0006908432 0.018930709 0.015346737 0.024672784 -0.011753415
-0.0626689 0.019373422 -0.0072852112 0.006583592 0.001028308 -0.09146619 -0.03456231 -0.0703986
0.0021254895 -0.03159111 -0.01630267 0.038064376 -0.011665994 0.009908447 0.059077233 0.021816837
0.10881271 0.080801174 0.00734368 0.034212608 0.05218289 -0.00065769686 0.00530195 -0.003542761
0.01613105 -0.017960293 0.06503219 -0.002467736 0.020342728 -0.034562822 -0.045996442 -0.027616195
-0.0140528185 -0.06504488 -0.035524547 -0.036213946 -0.021076474 -0.017852971 0.012445347 0.07846864
-0.028273525 0.05600846 0.046044447 0.052465566 0.055195678 0.05467845 0.0011272901 -0.042409793
-0.0041769263 -0.028744476 -0.09554598 -0.09496803 -0.0721451 -0.12637267 -0.16821912 0.056704205
0.017570978 -0.03199692 0.046742465 0.036003206 -0.014820463 0.042104304 -0.0020964397 0.0035947976
0.03321234 0.056738034 -0.020326769 0.01877327 -0.054020274 0.01193187 -0.023877064 -0.05846608
-0.0031111306 -0.03659305 0.051338874 0.03807454 0.009306887 -0.050020143 0.026272152 -0.013286041
-0.008702769 0.01044833 0.044440374 0.03901071 0.015800005 0.06296077 -0.0069793207 -0.025821224
0.096768744 0.05180314 0.002748696 -0.03098124 -0.046051927 -0.016645402 -0.026170237 -0.040814474
-0.025839077 -0.019315353 0.02664785 -0.026005851 -0.02291803 -0.0038512042 -0.014154697 -0.041115634

CNN_feature_extractor.layer3.0.bias f4 [64]
00000000: 0a29 8abd ffb8 56bd eda0 cfba 044d 10bc
00000010: 3c1c a83b 8dbb 4ebd caa9 25bd 0bd4 2abd
00000020: 5c0f 8cbc aeb0 acbc 2623 1cbd d027 b2bc
00000030: 4006 8dbc 8daf 06bd 6d79 07bd 452f 5c3b
00000040: b18f b43c 9923 3dbd 99fd a43c 9e56 7d3a
00000050: 3046 3bbc f96f 44bd 9dbe 29bc aec6 84bd
00000060: aeff 8cbb 0bac 39bd ada1 edbc c20a e6bc
00000070: 626a 9e3b 8b87 d83b 579a 61bc 4875 9fbc
00000080: a804 9e3c 1785 223b 51ad 73bc 918a cc3b
00000090: b4f4 a13c 4102 1bbc 516b 5dbd d188 0ebd
000000a0: 53ec 03bc 40c0 3a3c 8421 83bd d28c d5bc
000000b0: 6cb7 d3bc 27c5 c33c fea1 f3bc 629a 5dbd
000000c0: ea81 5dbd 56c8 ab3c 4a8a 76bc 3983 0cbd
000000d0: 6885 5abd 1edb 673c 20bd 5d3c ebd0 95bd
000000e0: 999b 19bd 0ed3 1bbd d31b 0e3c 50fa 533b
000000f0: 1b4a 82bd a710 05bd 72a4 b0bc 323a f53c
-0.06746109 -0.05242252 -0.0015840806 -0.008807424 0.005130319 -0.05047183 -0.040445127 -0.041706126
-0.017097168 -0.021080341 -0.038119458 -0.0217475 -0.017214894 -0.032882262 -0.033074785 0.003359751
0.022041174 -0.046176527 0.020140456 0.0009664091 -0.011430308 -0.047958348 -0.010360387 -0.06483208
-0.0043029403 -0.04533009 -0.029007757 -0.028081302 0.004834459 0.006607955 -0.013769708 -0.019465104
0.01928933 0.0024798566 -0.014872865 0.0062421043 0.019770004 -0.009460987 -0.054057423 -0.034798447
-0.00805195 0.011398375 -0.06402877 -0.026068125 -0.025844298 0.02389772 -0.02974033 -0.05410231
-0.054078974 0.020969551 -0.015047619 -0.03430483 -0.053349882 0.014151363 0.01353386 -0.073152386
-0.037501905 -0.038043074 0.008673626 0.0032345243 -0.06361791 -0.032486584 -0.021562789 0.029934976

CNN_feature_extractor.layer3.2.weight f4 [64, 64, 3, 3]
00000000: 06b9 4e3c 4891 09bd 93aa d23c 4f16 a2bb
00000010: 10de 2c3c ffd4 e33b c8ee afba b76c dcbc
00000020: c2f6 0fbc 564e 973b 4665 73bc 6746 a0bc
00000030: b96c bbbc 4a71 c5bb 14e3 f83c a361 2ebc
00000040: 1f61 1bbd 0743 053c 6d5f 58bb 93ae 513c
00000050: df13 223d bf8c 0c3d 5f42 ca3b dad8 3fbb
00000060: 9cab a43c 56ac 1cbd c16a d83c e192 f3bc
00000070: 1459 0e3d e536 0b3c ae95 643c 2ee9 043b
00000080: f5cb 383c 2aa0 a33c 7e5a 09bd be5f ec3c
00000090: 626c 79bc 0556 243d 936c 063d 410a fbbc
000000a0: 64d7 463c a820 1bbc ed92 70bb 28c7 6fbc
000000b0: 95ea 8fbc 50e0 5fbb 126c b83c 39b4 173d
000000c0: 3eea aebc 3a9d db3c 5a86 26bd 2a96 a83c
000000d0: 930f c6bc b211 1abd 8455 bc3c 4adf fbbc
000000e0: e5f7 e23c 6232 8b3c 9a33 f53c cb94 7ebb
000000f0: c91e d9bb a8a0 07bd 9dd4 98bc 3192 23bd
00000100: 764e 10bd d064 b43c 4fa3 9fbb 05ad 33bc
00000110: 9531 16bd 83ba 34bc 6af3 b9bc 4fdf de3c
00000120: 3efc 13bd f016 8ebc d84b 833c 219b bfbc
00000130: 4595 e1bc 463b 17bd 7043 df3c 791b f83b
00000140: 836b 55bc 91bc b83c 4edd 0c3b c9f1 90bc
00000150: c290 623c 9bb6 773c 7b27 68bc 5ddd d8bb
00000160: 1e48 053d 09c5 99bc fcdf e6bc 9c01 de3b
00000170: c9ba 403c 057c b8bc fd74 0cbd e4f7 fd3c
00000180: c592 a23c 7d66 f5bc 0210 3a3c 8d4e f7bc
00000190: cff9 3d3c e22d faba 7b21 9abc 35a5 8dbc
000001a0: 7a73 1fbb 95ca ca3c 3976 66bb e614 c2bc
000001b0: 2732 8b3a ef02 7c3b 81b8 1cbd a0f9 063d
000001c0: 8480 ac3c 4725 e23c 0c80 bb3c c411 33bd
000001d0: aa48 18bd e7d4 7e3c 6811 073d c0a3 ac3b
000001e0: f64e 94bb 40e4 823c c508 983c aec7 bf3b
000001f0: 176b 3abd 3b8e 1fbd 82a3 da3b 1bc3 983c
00000200: a8d6 adbb 102b 9f3c 75cf 8bbc 4ec4 eabc
00000210: 621b d63c 6a23 033c 8b33 203d c21c 7d3c
00000220: 37dd 21bc 1d97 0abd fabe d53b dbbd b738
00000230: 988f f6bc 623b 1dbd a432 373c 112d 213d
00000240: 0ee9 7bbc 38ec ccbc f688 44bd ad1e 38bd
00000250: 8b22 78bc 3fcf 04bd a035 003d faeb c53b
00000260: d13f cd3c 24d8 1cbc 563a 4bbc b028 7c3b
00000270: a884 a13c d091 5f3b 4829 c3bc bbfe d5bc
00000280: db57 01bd 44c2 573c f79f d73b 1ba3 1abd
00000290: a670 423c 618b 19bd 580b 0e3d 140b 18bc
000002a0: d7a2 5dbc 01d5 963b 76bc 44bd 9c20 e6bc
000002b0: 48b7 513c 6b87 673c 5f2d 113d ddb7 8c3c
000002c0: fb8c a3bc 4894 1a3d 9e86 d5bc 292c a5bb
000002d0: a79a 853c d928 a9bc 1821 23bd 05b2 98bc
000002e0: e2b0 07bc ae43 e1bc deff d7bc 081a 4abc
000002f0: def4 ba3c 58a0 75bc 0351 e73c 22c2 55bb
00000300: b994 573c fa6c b9bc 77b4 0bbd 5946 efbc
00000310: 8032 05bd d528 e73b cc1a 15bd 499f 6ebb
00000320: 6ea6 ea3c 87f5 27bb 49e8 ff3c c028 763a
00000330: 64ba 0ebd 68e6 1fb9 20a0 113c 1fe2 0e3d
00000340: e426 003c 3c26 1cbd 17c4 25bd 36f6 49bc
00000350: 7caa 333c 901c 023b 0731 29bd 9c07 143c
00000360: daa1 253d 6ddb 193d a0e0 ab3b 6d2c ef3c
00000370: 301f fc3b 641b 1fbc 0a19 e33c ecc6 62bc
00000380: e156 2a3d 5598 adbc e624 a13c f01e ab3a
00000390: e6bb 223a 3f1a d93c 8e88 c53c 0d33 d3bc
000003a0: 09cf 22bd 8971 0cbd 5d07 ccbc ed0b bb3b
000003b0: 4c21 863c 3049 6c3c 87bf 33bc 170e fd3b
000003c0: dbc9 623c 1b1f c6bc 3b84 733c add0 913c
000003d0: 3af9 a53c d10f f63c 3162 acbb e1a9 27bc
000003e0: 1c3c 533c be9b d23c 9483 81bc c32a 29bd
000003f0: d139 09bd aeaf b3bc 9a4c a63b 3086 d73b
0.012617355 -0.033585817 0.025716102 -0.004946507 0.010550991 0.0069528813 -0.0013422603 -0.026907308
-0.008786859 0.0046174927 -0.014855688 -0.01956482 -0.022878991 -0.006025468 0.030381717 -0.010643396
-0.03793442 0.008133656 -0.0033015863 0.012797969 0.03956973 0.034313913 0.006172463 -0.002927354
0.020101361 -0.03825029 0.026418092 -0.029733123 0.03475292 0.008496975 0.013951702 0.0020280587
0.011279096 0.019973833 -0.033533566 0.028854247 -0.015223594 0.040121097 0.03281839 -0.030644538
0.012136314 -0.009468235 -0.0036708668 -0.014634885 -0.017567912 -0.00341608 0.02251247 0.037037108
-0.02135193 0.02680837 -0.04065547 0.020579416 -0.024177348 -0.03761453 0.022989996 -0.030746121
0.027706096 0.016991798 0.029931832 -0.0038846012 -0.0066259843 -0.033112198 -0.01865607 -0.03993434
-0.035231076 0.022020727 -0.004871763 -0.010966544 -0.03666838 -0.011030796 -0.022699077 0.027206091
-0.03612923 -0.017344922 0.016027376 -0.0233894 -0.027536998 -0.036921762 0.027253836 0.0075716344
-0.013026121 0.022550853 0.0021494213 -0.017693417 0.013828458 0.01511922 -0.014169569 -0.0066181854
0.03253948 -0.018770711 -0.028182976 0.006775094 0.011763283 -0.022520075 -0.034291256 0.031001993
0.019845376 -0.029956097 0.011356356 -0.030188823 0.011595204 -0.001908716 -0.018814793 -0.01729069
-0.0024330304 0.024754802 -0.003516568 -0.023691606 0.0010619805 0.0038453897 -0.038261894 0.032952905
0.021057375 0.027605666 0.022888206 -0.043718114 -0.037178673 0.01555369 0.032975584 0.005268544
-0.0045260144 0.015977979 0.01855887 0.005852661 -0.045512285 -0.038954 0.0066723237 0.018647721
-0.00530513 0.019429713 -0.017066697 -0.028658058 0.026136104 0.008004049 0.039111655 0.015448751
-0.009879402 -0.03383552 0.0065230103 8.761483e-05 -0.030097768 -0.03838671 0.011181507 0.03934962
-0.015375389 -0.025014982 -0.04798218 -0.04495113 -0.015144954 -0.032424208 0.03130114 0.0060400935
0.025054844 -0.009573016 -0.012404045 0.00384764 0.019716576 0.003411401 -0.023823395 -0.026122442
-0.031577926 0.013168875 0.0065803486 -0.037753206 0.011867678 -0.037486438 0.034678787 -0.009279985
-0.013527594 0.0046030288 -0.048031293 -0.028091721 0.012800045 0.014131407 0.03544366 0.017177517
-0.019964686 0.03773907 -0.026065167 -0.0050406647 0.016309096 -0.02064936 -0.039826483 -0.018639574
-0.008281918 -0.027498093 -0.026367124 -0.012335308 0.02282184 -0.014991842 0.028236872 -0.0032616933
0.013158017 -0.022634972 -0.03410765 -0.029208349 -0.032518864 0.007054428 -0.03640251 -0.003641086
0.028643813 -0.0025628523 0.031238692 0.00093902275 -0.034845725 -0.00015249255 0.008888274 0.034883615
0.007821772 -0.0381224 -0.04047021 -0.012326768 0.01096594 0.001985345 -0.04130652 0.009035017
0.040437557 0.037562776 0.0052452832 0.029195989 0.0076941475 -0.00971112 0.0277219 -0.013841372
0.04158676 -0.021190802 0.019670915 0.0013055485 0.00062078086 0.026501773 0.024112966 -0.025781179
-0.039748225 -0.034287963 -0.024905855 0.005708209 0.016373299 0.014421746 -0.010970957 0.007722627
0.013842071 -0.024184754 0.014863069 0.0177997 0.020260442 0.030036839 -0.0052607288 -0.010233373
0.012892749 0.02570903 -0.015809812 -0.041300546 -0.033502404 -0.021934357 0.0050750496 0.0065772757

CNN_feature_extractor.layer3.2.bias f4 [64]
00000000: d980 e9bc 6d06 8ebc cbff 00bc 6aea 623c
00000010: a27a 83bc f925 0e3d ec0b 14bd 329d 443c
00000020: 532b e83c b476 cebb 965a 29bd eafb f83c
00000030: 4279 063a 6cd8 ffba 3092 2e3d 1d5b dd3b
00000040: 4f0c 08bc b7ad acbc d734 46bd a5f0 1bbd
00000050: 9f7a 563d a2fc d73b fce8 02bc 6f27 b73b
00000060: 9e22 d8bc e14e d1bc 2966 9dbc a266 debc
00000070: a44f 1d3c ec22 ae3c a9d5 37bc defd 67bb
00000080: c1e1 2bbc 6186 bf3c 192e 89bc 2706 363d
00000090: cd23 e8bc d492 143c 80dc 0c3c 30d9 493c
000000a0: 2beb 1ebc 6751 823b ce90 81bc 26f0 33bb
000000b0: 2aa0 92ba 9c5b 8f3b 0090 a43c b7c7 84bc
000000c0: d764 b0bc 5530 e3bc 89b4 953a 522a 49b8
000000d0: 2e7a e43b 71ce 11bc 259e 8b3a 0b7f 0f3d
000000e0: b7a4 8dbc 8a01 26bc 31c7 983c 280c 14bd
000000f0: ea89 c2bb 360a aa3b e582 2cbb 1f23 183d
-0.028503822 -0.017337048 -0.007873486 0.013849834 -0.016049687 0.034704182 -0.036144182 0.012000369
0.028340971 -0.0063007716 -0.041346155 0.03039356 0.0005129763 -0.0019519455 0.042619884 0.0067552463
-0.008303716 -0.021078927 -0.048390236 -0.038071293 0.052363034 0.0065913955 -0.007990118 0.0055894176
-0.026383694 -0.025550308 -0.019213753 -0.027148549 0.009601507 0.021256886 -0.011220374 -0.003539912
-0.010490836 0.023379507 -0.016745614 0.04443946 -0.028337384 0.00906821 0.008597493 0.012319848
-0.009699623 0.003976989 -0.015816119 -0.0027456372 -0.0011186649 0.0043749344 0.020088196 -0.016208513
-0.02153246 -0.027733007 0.0011421602 -4.796155e-05 0.0069725728 -0.008899317 0.0010651989 0.035033267
-0.017290456 -0.010132203 0.01864967 -0.036144406 -0.005936851 0.0051892055 -0.0026323136 0.03714287

rnn.weight_ih_l0 f4 [64, 16]
00000000: f363 c2bc 2aea e63d 7e98 c33d 2e91 493d
00000010: 2d62 143b e1e9 673c b3d6 233d 6d4c babd
00000020: 0e5c 87bd 1fad d9bc 4967 e9bb fd31 2ebd
00000030: cc38 1bbe 0191 973c 4517 10be fadc bebd
00000040: 8350 0dba be77 ebbd eb9e 853c 767e e8bd
00000050: a95e 18bc 84d5 0a3e ab54 bdbd ccb6 9ebc
00000060: 0201 8e3d 959a d2bd 52e2 00bb 6312 5fbd
00000070: e2dc c7bc ff4b 623d 1c8f 5abd 0d89 debd
00000080: 4712 87bc 7947 edbd 68bc a33d 419f 09bc
00000090: f8d4 963c d8b4 993d 97a9 e5bd d2d4 01be
000000a0: 0538 b5bd d295 853d 4244 fdbd dd85 19bd
000000b0: 6ba5 afbd 62e8 3a3d bc73 ed3c b988 903d
000000c0: 8739 463e da6f 843d fb71 433e a488 083e
000000d0: ca5a 8dbd 01c9 4dbd 0d43 b8bd 1b2d 823b
000000e0: 7886 15bc e10a fabc b889 873d 5692 033e
000000f0: d3d5 b83d c5ce 943d ac02 e33c 88e0 943d
00000100: 4031 2abe ccdd 503d c907 713c 5596 c1bd
00000110: 60d5 12be d528 853d 1e1d 91bd ed67 f6bb
00000120: a33f 5dbd a9bc 14bd da7a f23d ec06 04be
00000130: d8d8 f8bd db23 babb 544b 323c 7f63 eebd
00000140: 2e85 d2bc 8b68 913d 8753 4c3b 64b6 a23d
00000150: 08df 38bc 10b6 2a3d 0285 0ebe 91d0 643d
00000160: 8d1f 313c 7cef af3d c08f 7bbd 2969 e23d
00000170: 23ba 2a3e 304d 893d cb02 b13d 06f0 603d
00000180: 4f76 553c 4f10 923d ffe8 3abd d40f 113e
00000190: 3ba3 d03d 1fb7 763d 9b7c 463b 8131 c8ba
000001a0: 47e4 6fbb 5d5f 95bd b3eb 07bd 0265 9a3d
000001b0: d82a 183e d294 903d fb6f 04be 80d8 0b3e
000001c0: 7486 ecbd 113c a03c 8c58 cebd 9e8f 3abe
000001d0: 7aec 09bd ac6c 9dbd 9436 70bd 2236 28bd
000001e0: f6a3 4f3c 2e3a 6cbd 0353 ea3d f258 b13d
000001f0: 3dfd f93c 7f1f cbbd d95a 703c 58a1 f1bd
00000200: 58fa 6e3d 975a a33d 5265 b23d bc13 013e
00000210: d702 abbd 2062 7cbc 7129 dabd b917 913d
00000220: 867b d6bd 17c7 88bc 500d eebd 70bc 47bd
00000230: 1ad6 73bd 35cd b7bd c118 a2bd f1f5 8fbd
00000240: 557c af3d 9675 523b 7843 f3bc 195f 883d
00000250: cb7a 81bd c7e6 cb3d dcee a33c 7601 5c3d
00000260: d100 8bbb 21d7 cabd e466 9cbd 59dc 0cbe
00000270: db38 04bd 3028 59bd f2d0 05be 83cb 99bd
00000280: b23a 623d 403c ffbd ddbd c8bd b0a5 fabc
00000290: 7898 a73d 3f52 793d 8737 553d 2522 be3d
000002a0: 27c2 89bd 205d a43d cb89 9cba e88c 73bd
000002b0: 3302 3ebb 3c93 01be 6d19 c9bd 167b 19be
000002c0: 7540 2cbe e9a9 f8bd 66c8 1cbc 228a 66be
000002d0: d554 2cbd ed11 3fbd aaf1 abbc 066f 1b3c
000002e0: cce0 d13d a0d1 e63d 0a75 213d e7bd 393d
000002f0: b3ea 33be 7de6 91bd c1bc e0bc 00e5 11be
00000300: ae15 993d db7c 71bd 37e5 bfbd 6988 313c
00000310: b2f3 213d 373c 093c 3075 17bd bcd1 dc3b
00000320: 3c0a b83d 803b 213d c6d1 683d 6600 913d
00000330: ee11 d5bd e512 bcbd c563 64bd 235c 00bd
00000340: 4ddf 0bbc e2eb b2bc 1be7 30bd 9eda 193d
00000350: f9d5 d2bc 47d8 063e 197a a0bd ced8 4dbd
00000360: 8bf1 f83c d98a 97bd 1669 54bd e46f 2bbd
00000370: f6e5 f23d f7ea a83d 8803 e63c ac53 433c
00000380: fbe0 aabd 35b3 d63d d07b 0cbd 3076 31bd
00000390: 3168 abbd 782e 573d 6e53 1fbd 1f04 89bd
000003a0: e756 9ebd 5abd 41bc 1803 c2b8 8069 60bd
000003b0: 9fe6 36be 7b96 93bd a4c8 ab3d 99bd 04be
000003c0: bbb2 b2bc a0eb 26bd f3ba 87bb aa94 d4bd
000003d0: 27bb 57bd 2a56 08bd f0ab 25bd b1f4 c3bc
000003e0: 61ec 943d f2da ae3d 7d80 cdbd ecd2 ccbd
000003f0: 005c 233d dfd6 a83c e389 46bb 9488 11be
-0.0237293 0.11275132 0.0955057 0.04921072 0.0022641525 0.014154882 0.039999675 -0.09096608
-0.06609355 -0.026571808 -0.0071229083 -0.04252814 -0.15158385 0.01850176 -0.14071377 -0.09319492
-0.00053907203 -0.114974484 0.01631113 -0.113522455 -0.0092999125 0.13558012 -0.09244665 -0.019374274
0.06933786 -0.102833904 -0.0019666147 -0.054460894 -0.024397317 0.055248257 -0.053359136 -0.10865984
-0.016488208 -0.11585898 0.0799492 -0.0083997855 0.018412098 0.07505196 -0.11213987 -0.12678841
-0.088485755 0.065227166 -0.12366535 -0.037481178 -0.08576473 0.045631774 0.02898585 0.07057328
0.19357882 0.064666465 0.19086449 0.13333374 -0.06902082 -0.05024052 -0.08997164 0.003972662
-0.009126298 -0.030522766 0.06618065 0.12848791 0.09025159 0.07266001 0.027711235 0.072693884
-0.1662035 0.050992772 0.014711329 -0.09452502 -0.14339209 0.06501929 -0.07085632 -0.007519713
-0.054015767 -0.036312733 0.11839838 -0.12893265 -0.12150735 -0.005680544 0.010882217 -0.11640071
-0.02569827 0.07100018 0.0031177716 0.079449445 -0.011283644 0.041677535 -0.13917926 0.055862967
0.010810745 0.085906 -0.061416388 0.11055214 0.16672568 0.067041755 0.08643111 0.054916404
0.013028695 0.07132017 -0.04563236 0.14166194 0.10187384 0.06023323 0.0030286673 -0.0015273542
-0.003660457 -0.0729358 -0.033183765 0.07538797 0.14860094 0.07059635 -0.12933342 0.13656807
-0.115490824 0.019559892 -0.10075483 -0.18218848 -0.033672787 -0.07686743 -0.0586458 -0.04106725
0.012673369 -0.057672672 0.114416145 0.08659543 0.030516261 -0.09918117 0.014670097 -0.11798352
0.058344215 0.07976263 0.087107316 0.12605184 -0.08350151 -0.015404254 -0.106524356 0.07084603
-0.10472779 -0.016696496 -0.11623633 -0.048763692 -0.059530355 -0.08974687 -0.07914878 -0.070293315
0.08568636 0.0032113544 -0.029695258 0.066587634 -0.06322249 0.09956127 0.020011358 0.05371233
-0.0042420407 -0.09904314 -0.07636812 -0.13755931 -0.032280784 -0.05301684 -0.13067988 -0.0750952
0.055231757 -0.12462664 -0.098018385 -0.030596584 0.08183378 0.06086945 0.052054908 0.09283856
-0.06726485 0.08025575 -0.0011942921 -0.05946055 -0.002899301 -0.12653822 -0.09819303 -0.1498836
-0.16821463 -0.12141783 -0.009569263 -0.22513631 -0.04207309 -0.046647955 -0.020989258 0.009486919
0.10247955 0.112704515 0.039418258 0.04534712 -0.1757 -0.0712404 -0.027433755 -0.14247513
0.07474838 -0.058956962 -0.09369891 0.010835745 0.039539047 0.008376173 -0.036976993 0.0067388695
0.08986327 0.039363384 0.05684068 0.07080154 -0.104038104 -0.09183291 -0.05575921 -0.03133787
-0.008537126 -0.021840993 -0.04318915 0.037562005 -0.025736796 0.13168441 -0.07835788 -0.05025559
0.030388614 -0.0739953 -0.05185803 -0.041854754 0.11860268 0.08247941 0.028077856 0.011921804
-0.08343693 0.104834 -0.034297764 -0.043325603 -0.08369482 0.05253455 -0.038897924 -0.06690239
-0.07731419 -0.01182493 -9.251217e-05 -0.054788113 -0.17861412 -0.07206436 0.083878785 -0.12962951
-0.021813741 -0.040752053 -0.004142159 -0.10379918 -0.052668717 -0.033285297 -0.040447176 -0.023920389
0.07271648 0.08537854 -0.10034273 -0.10001168 0.03988266 0.020610271 -0.003029459 -0.14212257
